{"format": "layers-model", "generatedBy": "keras v2.2.4", "convertedBy": "TensorFlow.js Converter v1.1.2", "modelTopology": {"keras_version": "2.2.4", "backend": "tensorflow", "model_config": {"class_name": "Model", "config": {"name": "efficientnet-b3", "layers": [{"name": "input_1", "class_name": "InputLayer", "config": {"batch_input_shape": [null, 300, 300, 3], "dtype": "float32", "sparse": false, "name": "input_1"}, "inbound_nodes": []}, {"name": "conv2d_1", "class_name": "Conv2D", "config": {"name": "conv2d_1", "trainable": true, "filters": 40, "kernel_size": [3, 3], "strides": [2, 2], "padding": "same", "data_format": "channels_last", "dilation_rate": [1, 1], "activation": "linear", "use_bias": false, "kernel_initializer": {"class_name": "EfficientConv2DKernelInitializer", "config": {}}, "bias_initializer": {"class_name": "Zeros", "config": {}}, "kernel_regularizer": null, "bias_regularizer": null, "activity_regularizer": null, "kernel_constraint": null, "bias_constraint": null}, "inbound_nodes": [[["input_1", 0, 0, {}]]]}, {"name": "batch_normalization_1", "class_name": "BatchNormalization", "config": {"name": "batch_normalization_1", "trainable": true, "axis": -1, "momentum": 0.99, "epsilon": 0.001, "center": true, "scale": true, "beta_initializer": {"class_name": "Zeros", "config": {}}, "gamma_initializer": {"class_name": "Ones", "config": {}}, "moving_mean_initializer": {"class_name": "Zeros", "config": {}}, "moving_variance_initializer": {"class_name": "Ones", "config": {}}, "beta_regularizer": null, "gamma_regularizer": null, "beta_constraint": null, "gamma_constraint": null}, "inbound_nodes": [[["conv2d_1", 0, 0, {}]]]}, {"name": "swish_1", "class_name": "Swish", "config": {"name": "swish_1", "trainable": true}, "inbound_nodes": [[["batch_normalization_1", 0, 0, {}]]]}, {"name": "depthwise_conv2d_1", "class_name": "DepthwiseConv2D", "config": {"name": "depthwise_conv2d_1", "trainable": true, "kernel_size": [3, 3], "strides": [1, 1], "padding": "same", "data_format": "channels_last", "dilation_rate": [1, 1], "activation": "linear", "use_bias": false, "bias_initializer": {"class_name": "Zeros", "config": {}}, "bias_regularizer": null, "activity_regularizer": null, "bias_constraint": null, "depth_multiplier": 1, "depthwise_initializer": {"class_name": "EfficientConv2DKernelInitializer", "config": {}}, "depthwise_regularizer": null, "depthwise_constraint": null}, "inbound_nodes": [[["swish_1", 0, 0, {}]]]}, {"name": "batch_normalization_2", "class_name": "BatchNormalization", "config": {"name": "batch_normalization_2", "trainable": true, "axis": -1, "momentum": 0.99, "epsilon": 0.001, "center": true, "scale": true, "beta_initializer": {"class_name": "Zeros", "config": {}}, "gamma_initializer": {"class_name": "Ones", "config": {}}, "moving_mean_initializer": {"class_name": "Zeros", "config": {}}, "moving_variance_initializer": {"class_name": "Ones", "config": {}}, "beta_regularizer": null, "gamma_regularizer": null, "beta_constraint": null, "gamma_constraint": null}, "inbound_nodes": [[["depthwise_conv2d_1", 0, 0, {}]]]}, {"name": "swish_2", "class_name": "Swish", "config": {"name": "swish_2", "trainable": true}, "inbound_nodes": [[["batch_normalization_2", 0, 0, {}]]]}, {"name": "lambda_1", "class_name": "Lambda", "config": {"name": "lambda_1", "trainable": true, "function": ["4wEAAAAAAAAAAQAAAAUAAAATAAAAcxAAAAB0AGoBfACIAGQBZAKNA1MAKQNOVCkC2gRheGlz2ghr\nZWVwZGltcykC2gFL2gRtZWFuKQHaAWEpAdoMc3BhdGlhbF9kaW1zqQD6UC9ob21lL3BhdWwvYW5h\nY29uZGEzL2VudnMvR1NPQy9saWIvcHl0aG9uMy43L3NpdGUtcGFja2FnZXMvZWZmaWNpZW50bmV0\nL21vZGVsLnB52gg8bGFtYmRhPlcAAADzAAAAAA==\n", null, [[1, 2]]], "function_type": "lambda", "output_shape": null, "output_shape_type": "raw", "arguments": {}}, "inbound_nodes": [[["swish_2", 0, 0, {}]]]}, {"name": "conv2d_2", "class_name": "Conv2D", "config": {"name": "conv2d_2", "trainable": true, "filters": 10, "kernel_size": [1, 1], "strides": [1, 1], "padding": "same", "data_format": "channels_last", "dilation_rate": [1, 1], "activation": "linear", "use_bias": true, "kernel_initializer": {"class_name": "EfficientConv2DKernelInitializer", "config": {}}, "bias_initializer": {"class_name": "Zeros", "config": {}}, "kernel_regularizer": null, "bias_regularizer": null, "activity_regularizer": null, "kernel_constraint": null, "bias_constraint": null}, "inbound_nodes": [[["lambda_1", 0, 0, {}]]]}, {"name": "swish_3", "class_name": "Swish", "config": {"name": "swish_3", "trainable": true}, "inbound_nodes": [[["conv2d_2", 0, 0, {}]]]}, {"name": "conv2d_3", "class_name": "Conv2D", "config": {"name": "conv2d_3", "trainable": true, "filters": 40, "kernel_size": [1, 1], "strides": [1, 1], "padding": "same", "data_format": "channels_last", "dilation_rate": [1, 1], "activation": "linear", "use_bias": true, "kernel_initializer": {"class_name": "EfficientConv2DKernelInitializer", "config": {}}, "bias_initializer": {"class_name": "Zeros", "config": {}}, "kernel_regularizer": null, "bias_regularizer": null, "activity_regularizer": null, "kernel_constraint": null, "bias_constraint": null}, "inbound_nodes": [[["swish_3", 0, 0, {}]]]}, {"name": "activation_1", "class_name": "Activation", "config": {"name": "activation_1", "trainable": true, "activation": "sigmoid"}, "inbound_nodes": [[["conv2d_3", 0, 0, {}]]]}, {"name": "multiply_1", "class_name": "Multiply", "config": {"name": "multiply_1", "trainable": true}, "inbound_nodes": [[["activation_1", 0, 0, {}], ["swish_2", 0, 0, {}]]]}, {"name": "conv2d_4", "class_name": "Conv2D", "config": {"name": "conv2d_4", "trainable": true, "filters": 24, "kernel_size": [1, 1], "strides": [1, 1], "padding": "same", "data_format": "channels_last", "dilation_rate": [1, 1], "activation": "linear", "use_bias": false, "kernel_initializer": {"class_name": "EfficientConv2DKernelInitializer", "config": {}}, "bias_initializer": {"class_name": "Zeros", "config": {}}, "kernel_regularizer": null, "bias_regularizer": null, "activity_regularizer": null, "kernel_constraint": null, "bias_constraint": null}, "inbound_nodes": [[["multiply_1", 0, 0, {}]]]}, {"name": "batch_normalization_3", "class_name": "BatchNormalization", "config": {"name": "batch_normalization_3", "trainable": true, "axis": -1, "momentum": 0.99, "epsilon": 0.001, "center": true, "scale": true, "beta_initializer": {"class_name": "Zeros", "config": {}}, "gamma_initializer": {"class_name": "Ones", "config": {}}, "moving_mean_initializer": {"class_name": "Zeros", "config": {}}, "moving_variance_initializer": {"class_name": "Ones", "config": {}}, "beta_regularizer": null, "gamma_regularizer": null, "beta_constraint": null, "gamma_constraint": null}, "inbound_nodes": [[["conv2d_4", 0, 0, {}]]]}, {"name": "depthwise_conv2d_2", "class_name": "DepthwiseConv2D", "config": {"name": "depthwise_conv2d_2", "trainable": true, "kernel_size": [3, 3], "strides": [1, 1], "padding": "same", "data_format": "channels_last", "dilation_rate": [1, 1], "activation": "linear", "use_bias": false, "bias_initializer": {"class_name": "Zeros", "config": {}}, "bias_regularizer": null, "activity_regularizer": null, "bias_constraint": null, "depth_multiplier": 1, "depthwise_initializer": {"class_name": "EfficientConv2DKernelInitializer", "config": {}}, "depthwise_regularizer": null, "depthwise_constraint": null}, "inbound_nodes": [[["batch_normalization_3", 0, 0, {}]]]}, {"name": "batch_normalization_4", "class_name": "BatchNormalization", "config": {"name": "batch_normalization_4", "trainable": true, "axis": -1, "momentum": 0.99, "epsilon": 0.001, "center": true, "scale": true, "beta_initializer": {"class_name": "Zeros", "config": {}}, "gamma_initializer": {"class_name": "Ones", "config": {}}, "moving_mean_initializer": {"class_name": "Zeros", "config": {}}, "moving_variance_initializer": {"class_name": "Ones", "config": {}}, "beta_regularizer": null, "gamma_regularizer": null, "beta_constraint": null, "gamma_constraint": null}, "inbound_nodes": [[["depthwise_conv2d_2", 0, 0, {}]]]}, {"name": "swish_4", "class_name": "Swish", "config": {"name": "swish_4", "trainable": true}, "inbound_nodes": [[["batch_normalization_4", 0, 0, {}]]]}, {"name": "lambda_2", "class_name": "Lambda", "config": {"name": "lambda_2", "trainable": true, "function": ["4wEAAAAAAAAAAQAAAAUAAAATAAAAcxAAAAB0AGoBfACIAGQBZAKNA1MAKQNOVCkC2gRheGlz2ghr\nZWVwZGltcykC2gFL2gRtZWFuKQHaAWEpAdoMc3BhdGlhbF9kaW1zqQD6UC9ob21lL3BhdWwvYW5h\nY29uZGEzL2VudnMvR1NPQy9saWIvcHl0aG9uMy43L3NpdGUtcGFja2FnZXMvZWZmaWNpZW50bmV0\nL21vZGVsLnB52gg8bGFtYmRhPlcAAADzAAAAAA==\n", null, [[1, 2]]], "function_type": "lambda", "output_shape": null, "output_shape_type": "raw", "arguments": {}}, "inbound_nodes": [[["swish_4", 0, 0, {}]]]}, {"name": "conv2d_5", "class_name": "Conv2D", "config": {"name": "conv2d_5", "trainable": true, "filters": 6, "kernel_size": [1, 1], "strides": [1, 1], "padding": "same", "data_format": "channels_last", "dilation_rate": [1, 1], "activation": "linear", "use_bias": true, "kernel_initializer": {"class_name": "EfficientConv2DKernelInitializer", "config": {}}, "bias_initializer": {"class_name": "Zeros", "config": {}}, "kernel_regularizer": null, "bias_regularizer": null, "activity_regularizer": null, "kernel_constraint": null, "bias_constraint": null}, "inbound_nodes": [[["lambda_2", 0, 0, {}]]]}, {"name": "swish_5", "class_name": "Swish", "config": {"name": "swish_5", "trainable": true}, "inbound_nodes": [[["conv2d_5", 0, 0, {}]]]}, {"name": "conv2d_6", "class_name": "Conv2D", "config": {"name": "conv2d_6", "trainable": true, "filters": 24, "kernel_size": [1, 1], "strides": [1, 1], "padding": "same", "data_format": "channels_last", "dilation_rate": [1, 1], "activation": "linear", "use_bias": true, "kernel_initializer": {"class_name": "EfficientConv2DKernelInitializer", "config": {}}, "bias_initializer": {"class_name": "Zeros", "config": {}}, "kernel_regularizer": null, "bias_regularizer": null, "activity_regularizer": null, "kernel_constraint": null, "bias_constraint": null}, "inbound_nodes": [[["swish_5", 0, 0, {}]]]}, {"name": "activation_2", "class_name": "Activation", "config": {"name": "activation_2", "trainable": true, "activation": "sigmoid"}, "inbound_nodes": [[["conv2d_6", 0, 0, {}]]]}, {"name": "multiply_2", "class_name": "Multiply", "config": {"name": "multiply_2", "trainable": true}, "inbound_nodes": [[["activation_2", 0, 0, {}], ["swish_4", 0, 0, {}]]]}, {"name": "conv2d_7", "class_name": "Conv2D", "config": {"name": "conv2d_7", "trainable": true, "filters": 24, "kernel_size": [1, 1], "strides": [1, 1], "padding": "same", "data_format": "channels_last", "dilation_rate": [1, 1], "activation": "linear", "use_bias": false, "kernel_initializer": {"class_name": "EfficientConv2DKernelInitializer", "config": {}}, "bias_initializer": {"class_name": "Zeros", "config": {}}, "kernel_regularizer": null, "bias_regularizer": null, "activity_regularizer": null, "kernel_constraint": null, "bias_constraint": null}, "inbound_nodes": [[["multiply_2", 0, 0, {}]]]}, {"name": "batch_normalization_5", "class_name": "BatchNormalization", "config": {"name": "batch_normalization_5", "trainable": true, "axis": -1, "momentum": 0.99, "epsilon": 0.001, "center": true, "scale": true, "beta_initializer": {"class_name": "Zeros", "config": {}}, "gamma_initializer": {"class_name": "Ones", "config": {}}, "moving_mean_initializer": {"class_name": "Zeros", "config": {}}, "moving_variance_initializer": {"class_name": "Ones", "config": {}}, "beta_regularizer": null, "gamma_regularizer": null, "beta_constraint": null, "gamma_constraint": null}, "inbound_nodes": [[["conv2d_7", 0, 0, {}]]]}, {"name": "drop_connect_1", "class_name": "DropConnect", "config": {"name": "drop_connect_1", "trainable": true, "drop_connect_rate": 0.025}, "inbound_nodes": [[["batch_normalization_5", 0, 0, {}]]]}, {"name": "add_1", "class_name": "Add", "config": {"name": "add_1", "trainable": true}, "inbound_nodes": [[["drop_connect_1", 0, 0, {}], ["batch_normalization_3", 0, 0, {}]]]}, {"name": "conv2d_8", "class_name": "Conv2D", "config": {"name": "conv2d_8", "trainable": true, "filters": 144, "kernel_size": [1, 1], "strides": [1, 1], "padding": "same", "data_format": "channels_last", "dilation_rate": [1, 1], "activation": "linear", "use_bias": false, "kernel_initializer": {"class_name": "EfficientConv2DKernelInitializer", "config": {}}, "bias_initializer": {"class_name": "Zeros", "config": {}}, "kernel_regularizer": null, "bias_regularizer": null, "activity_regularizer": null, "kernel_constraint": null, "bias_constraint": null}, "inbound_nodes": [[["add_1", 0, 0, {}]]]}, {"name": "batch_normalization_6", "class_name": "BatchNormalization", "config": {"name": "batch_normalization_6", "trainable": true, "axis": -1, "momentum": 0.99, "epsilon": 0.001, "center": true, "scale": true, "beta_initializer": {"class_name": "Zeros", "config": {}}, "gamma_initializer": {"class_name": "Ones", "config": {}}, "moving_mean_initializer": {"class_name": "Zeros", "config": {}}, "moving_variance_initializer": {"class_name": "Ones", "config": {}}, "beta_regularizer": null, "gamma_regularizer": null, "beta_constraint": null, "gamma_constraint": null}, "inbound_nodes": [[["conv2d_8", 0, 0, {}]]]}, {"name": "swish_6", "class_name": "Swish", "config": {"name": "swish_6", "trainable": true}, "inbound_nodes": [[["batch_normalization_6", 0, 0, {}]]]}, {"name": "depthwise_conv2d_3", "class_name": "DepthwiseConv2D", "config": {"name": "depthwise_conv2d_3", "trainable": true, "kernel_size": [3, 3], "strides": [2, 2], "padding": "same", "data_format": "channels_last", "dilation_rate": [1, 1], "activation": "linear", "use_bias": false, "bias_initializer": {"class_name": "Zeros", "config": {}}, "bias_regularizer": null, "activity_regularizer": null, "bias_constraint": null, "depth_multiplier": 1, "depthwise_initializer": {"class_name": "EfficientConv2DKernelInitializer", "config": {}}, "depthwise_regularizer": null, "depthwise_constraint": null}, "inbound_nodes": [[["swish_6", 0, 0, {}]]]}, {"name": "batch_normalization_7", "class_name": "BatchNormalization", "config": {"name": "batch_normalization_7", "trainable": true, "axis": -1, "momentum": 0.99, "epsilon": 0.001, "center": true, "scale": true, "beta_initializer": {"class_name": "Zeros", "config": {}}, "gamma_initializer": {"class_name": "Ones", "config": {}}, "moving_mean_initializer": {"class_name": "Zeros", "config": {}}, "moving_variance_initializer": {"class_name": "Ones", "config": {}}, "beta_regularizer": null, "gamma_regularizer": null, "beta_constraint": null, "gamma_constraint": null}, "inbound_nodes": [[["depthwise_conv2d_3", 0, 0, {}]]]}, {"name": "swish_7", "class_name": "Swish", "config": {"name": "swish_7", "trainable": true}, "inbound_nodes": [[["batch_normalization_7", 0, 0, {}]]]}, {"name": "lambda_3", "class_name": "Lambda", "config": {"name": "lambda_3", "trainable": true, "function": ["4wEAAAAAAAAAAQAAAAUAAAATAAAAcxAAAAB0AGoBfACIAGQBZAKNA1MAKQNOVCkC2gRheGlz2ghr\nZWVwZGltcykC2gFL2gRtZWFuKQHaAWEpAdoMc3BhdGlhbF9kaW1zqQD6UC9ob21lL3BhdWwvYW5h\nY29uZGEzL2VudnMvR1NPQy9saWIvcHl0aG9uMy43L3NpdGUtcGFja2FnZXMvZWZmaWNpZW50bmV0\nL21vZGVsLnB52gg8bGFtYmRhPlcAAADzAAAAAA==\n", null, [[1, 2]]], "function_type": "lambda", "output_shape": null, "output_shape_type": "raw", "arguments": {}}, "inbound_nodes": [[["swish_7", 0, 0, {}]]]}, {"name": "conv2d_9", "class_name": "Conv2D", "config": {"name": "conv2d_9", "trainable": true, "filters": 6, "kernel_size": [1, 1], "strides": [1, 1], "padding": "same", "data_format": "channels_last", "dilation_rate": [1, 1], "activation": "linear", "use_bias": true, "kernel_initializer": {"class_name": "EfficientConv2DKernelInitializer", "config": {}}, "bias_initializer": {"class_name": "Zeros", "config": {}}, "kernel_regularizer": null, "bias_regularizer": null, "activity_regularizer": null, "kernel_constraint": null, "bias_constraint": null}, "inbound_nodes": [[["lambda_3", 0, 0, {}]]]}, {"name": "swish_8", "class_name": "Swish", "config": {"name": "swish_8", "trainable": true}, "inbound_nodes": [[["conv2d_9", 0, 0, {}]]]}, {"name": "conv2d_10", "class_name": "Conv2D", "config": {"name": "conv2d_10", "trainable": true, "filters": 144, "kernel_size": [1, 1], "strides": [1, 1], "padding": "same", "data_format": "channels_last", "dilation_rate": [1, 1], "activation": "linear", "use_bias": true, "kernel_initializer": {"class_name": "EfficientConv2DKernelInitializer", "config": {}}, "bias_initializer": {"class_name": "Zeros", "config": {}}, "kernel_regularizer": null, "bias_regularizer": null, "activity_regularizer": null, "kernel_constraint": null, "bias_constraint": null}, "inbound_nodes": [[["swish_8", 0, 0, {}]]]}, {"name": "activation_3", "class_name": "Activation", "config": {"name": "activation_3", "trainable": true, "activation": "sigmoid"}, "inbound_nodes": [[["conv2d_10", 0, 0, {}]]]}, {"name": "multiply_3", "class_name": "Multiply", "config": {"name": "multiply_3", "trainable": true}, "inbound_nodes": [[["activation_3", 0, 0, {}], ["swish_7", 0, 0, {}]]]}, {"name": "conv2d_11", "class_name": "Conv2D", "config": {"name": "conv2d_11", "trainable": true, "filters": 32, "kernel_size": [1, 1], "strides": [1, 1], "padding": "same", "data_format": "channels_last", "dilation_rate": [1, 1], "activation": "linear", "use_bias": false, "kernel_initializer": {"class_name": "EfficientConv2DKernelInitializer", "config": {}}, "bias_initializer": {"class_name": "Zeros", "config": {}}, "kernel_regularizer": null, "bias_regularizer": null, "activity_regularizer": null, "kernel_constraint": null, "bias_constraint": null}, "inbound_nodes": [[["multiply_3", 0, 0, {}]]]}, {"name": "batch_normalization_8", "class_name": "BatchNormalization", "config": {"name": "batch_normalization_8", "trainable": true, "axis": -1, "momentum": 0.99, "epsilon": 0.001, "center": true, "scale": true, "beta_initializer": {"class_name": "Zeros", "config": {}}, "gamma_initializer": {"class_name": "Ones", "config": {}}, "moving_mean_initializer": {"class_name": "Zeros", "config": {}}, "moving_variance_initializer": {"class_name": "Ones", "config": {}}, "beta_regularizer": null, "gamma_regularizer": null, "beta_constraint": null, "gamma_constraint": null}, "inbound_nodes": [[["conv2d_11", 0, 0, {}]]]}, {"name": "conv2d_12", "class_name": "Conv2D", "config": {"name": "conv2d_12", "trainable": true, "filters": 192, "kernel_size": [1, 1], "strides": [1, 1], "padding": "same", "data_format": "channels_last", "dilation_rate": [1, 1], "activation": "linear", "use_bias": false, "kernel_initializer": {"class_name": "EfficientConv2DKernelInitializer", "config": {}}, "bias_initializer": {"class_name": "Zeros", "config": {}}, "kernel_regularizer": null, "bias_regularizer": null, "activity_regularizer": null, "kernel_constraint": null, "bias_constraint": null}, "inbound_nodes": [[["batch_normalization_8", 0, 0, {}]]]}, {"name": "batch_normalization_9", "class_name": "BatchNormalization", "config": {"name": "batch_normalization_9", "trainable": true, "axis": -1, "momentum": 0.99, "epsilon": 0.001, "center": true, "scale": true, "beta_initializer": {"class_name": "Zeros", "config": {}}, "gamma_initializer": {"class_name": "Ones", "config": {}}, "moving_mean_initializer": {"class_name": "Zeros", "config": {}}, "moving_variance_initializer": {"class_name": "Ones", "config": {}}, "beta_regularizer": null, "gamma_regularizer": null, "beta_constraint": null, "gamma_constraint": null}, "inbound_nodes": [[["conv2d_12", 0, 0, {}]]]}, {"name": "swish_9", "class_name": "Swish", "config": {"name": "swish_9", "trainable": true}, "inbound_nodes": [[["batch_normalization_9", 0, 0, {}]]]}, {"name": "depthwise_conv2d_4", "class_name": "DepthwiseConv2D", "config": {"name": "depthwise_conv2d_4", "trainable": true, "kernel_size": [3, 3], "strides": [1, 1], "padding": "same", "data_format": "channels_last", "dilation_rate": [1, 1], "activation": "linear", "use_bias": false, "bias_initializer": {"class_name": "Zeros", "config": {}}, "bias_regularizer": null, "activity_regularizer": null, "bias_constraint": null, "depth_multiplier": 1, "depthwise_initializer": {"class_name": "EfficientConv2DKernelInitializer", "config": {}}, "depthwise_regularizer": null, "depthwise_constraint": null}, "inbound_nodes": [[["swish_9", 0, 0, {}]]]}, {"name": "batch_normalization_10", "class_name": "BatchNormalization", "config": {"name": "batch_normalization_10", "trainable": true, "axis": -1, "momentum": 0.99, "epsilon": 0.001, "center": true, "scale": true, "beta_initializer": {"class_name": "Zeros", "config": {}}, "gamma_initializer": {"class_name": "Ones", "config": {}}, "moving_mean_initializer": {"class_name": "Zeros", "config": {}}, "moving_variance_initializer": {"class_name": "Ones", "config": {}}, "beta_regularizer": null, "gamma_regularizer": null, "beta_constraint": null, "gamma_constraint": null}, "inbound_nodes": [[["depthwise_conv2d_4", 0, 0, {}]]]}, {"name": "swish_10", "class_name": "Swish", "config": {"name": "swish_10", "trainable": true}, "inbound_nodes": [[["batch_normalization_10", 0, 0, {}]]]}, {"name": "lambda_4", "class_name": "Lambda", "config": {"name": "lambda_4", "trainable": true, "function": ["4wEAAAAAAAAAAQAAAAUAAAATAAAAcxAAAAB0AGoBfACIAGQBZAKNA1MAKQNOVCkC2gRheGlz2ghr\nZWVwZGltcykC2gFL2gRtZWFuKQHaAWEpAdoMc3BhdGlhbF9kaW1zqQD6UC9ob21lL3BhdWwvYW5h\nY29uZGEzL2VudnMvR1NPQy9saWIvcHl0aG9uMy43L3NpdGUtcGFja2FnZXMvZWZmaWNpZW50bmV0\nL21vZGVsLnB52gg8bGFtYmRhPlcAAADzAAAAAA==\n", null, [[1, 2]]], "function_type": "lambda", "output_shape": null, "output_shape_type": "raw", "arguments": {}}, "inbound_nodes": [[["swish_10", 0, 0, {}]]]}, {"name": "conv2d_13", "class_name": "Conv2D", "config": {"name": "conv2d_13", "trainable": true, "filters": 8, "kernel_size": [1, 1], "strides": [1, 1], "padding": "same", "data_format": "channels_last", "dilation_rate": [1, 1], "activation": "linear", "use_bias": true, "kernel_initializer": {"class_name": "EfficientConv2DKernelInitializer", "config": {}}, "bias_initializer": {"class_name": "Zeros", "config": {}}, "kernel_regularizer": null, "bias_regularizer": null, "activity_regularizer": null, "kernel_constraint": null, "bias_constraint": null}, "inbound_nodes": [[["lambda_4", 0, 0, {}]]]}, {"name": "swish_11", "class_name": "Swish", "config": {"name": "swish_11", "trainable": true}, "inbound_nodes": [[["conv2d_13", 0, 0, {}]]]}, {"name": "conv2d_14", "class_name": "Conv2D", "config": {"name": "conv2d_14", "trainable": true, "filters": 192, "kernel_size": [1, 1], "strides": [1, 1], "padding": "same", "data_format": "channels_last", "dilation_rate": [1, 1], "activation": "linear", "use_bias": true, "kernel_initializer": {"class_name": "EfficientConv2DKernelInitializer", "config": {}}, "bias_initializer": {"class_name": "Zeros", "config": {}}, "kernel_regularizer": null, "bias_regularizer": null, "activity_regularizer": null, "kernel_constraint": null, "bias_constraint": null}, "inbound_nodes": [[["swish_11", 0, 0, {}]]]}, {"name": "activation_4", "class_name": "Activation", "config": {"name": "activation_4", "trainable": true, "activation": "sigmoid"}, "inbound_nodes": [[["conv2d_14", 0, 0, {}]]]}, {"name": "multiply_4", "class_name": "Multiply", "config": {"name": "multiply_4", "trainable": true}, "inbound_nodes": [[["activation_4", 0, 0, {}], ["swish_10", 0, 0, {}]]]}, {"name": "conv2d_15", "class_name": "Conv2D", "config": {"name": "conv2d_15", "trainable": true, "filters": 32, "kernel_size": [1, 1], "strides": [1, 1], "padding": "same", "data_format": "channels_last", "dilation_rate": [1, 1], "activation": "linear", "use_bias": false, "kernel_initializer": {"class_name": "EfficientConv2DKernelInitializer", "config": {}}, "bias_initializer": {"class_name": "Zeros", "config": {}}, "kernel_regularizer": null, "bias_regularizer": null, "activity_regularizer": null, "kernel_constraint": null, "bias_constraint": null}, "inbound_nodes": [[["multiply_4", 0, 0, {}]]]}, {"name": "batch_normalization_11", "class_name": "BatchNormalization", "config": {"name": "batch_normalization_11", "trainable": true, "axis": -1, "momentum": 0.99, "epsilon": 0.001, "center": true, "scale": true, "beta_initializer": {"class_name": "Zeros", "config": {}}, "gamma_initializer": {"class_name": "Ones", "config": {}}, "moving_mean_initializer": {"class_name": "Zeros", "config": {}}, "moving_variance_initializer": {"class_name": "Ones", "config": {}}, "beta_regularizer": null, "gamma_regularizer": null, "beta_constraint": null, "gamma_constraint": null}, "inbound_nodes": [[["conv2d_15", 0, 0, {}]]]}, {"name": "drop_connect_2", "class_name": "DropConnect", "config": {"name": "drop_connect_2", "trainable": true, "drop_connect_rate": 0.05}, "inbound_nodes": [[["batch_normalization_11", 0, 0, {}]]]}, {"name": "add_2", "class_name": "Add", "config": {"name": "add_2", "trainable": true}, "inbound_nodes": [[["drop_connect_2", 0, 0, {}], ["batch_normalization_8", 0, 0, {}]]]}, {"name": "conv2d_16", "class_name": "Conv2D", "config": {"name": "conv2d_16", "trainable": true, "filters": 192, "kernel_size": [1, 1], "strides": [1, 1], "padding": "same", "data_format": "channels_last", "dilation_rate": [1, 1], "activation": "linear", "use_bias": false, "kernel_initializer": {"class_name": "EfficientConv2DKernelInitializer", "config": {}}, "bias_initializer": {"class_name": "Zeros", "config": {}}, "kernel_regularizer": null, "bias_regularizer": null, "activity_regularizer": null, "kernel_constraint": null, "bias_constraint": null}, "inbound_nodes": [[["add_2", 0, 0, {}]]]}, {"name": "batch_normalization_12", "class_name": "BatchNormalization", "config": {"name": "batch_normalization_12", "trainable": true, "axis": -1, "momentum": 0.99, "epsilon": 0.001, "center": true, "scale": true, "beta_initializer": {"class_name": "Zeros", "config": {}}, "gamma_initializer": {"class_name": "Ones", "config": {}}, "moving_mean_initializer": {"class_name": "Zeros", "config": {}}, "moving_variance_initializer": {"class_name": "Ones", "config": {}}, "beta_regularizer": null, "gamma_regularizer": null, "beta_constraint": null, "gamma_constraint": null}, "inbound_nodes": [[["conv2d_16", 0, 0, {}]]]}, {"name": "swish_12", "class_name": "Swish", "config": {"name": "swish_12", "trainable": true}, "inbound_nodes": [[["batch_normalization_12", 0, 0, {}]]]}, {"name": "depthwise_conv2d_5", "class_name": "DepthwiseConv2D", "config": {"name": "depthwise_conv2d_5", "trainable": true, "kernel_size": [3, 3], "strides": [1, 1], "padding": "same", "data_format": "channels_last", "dilation_rate": [1, 1], "activation": "linear", "use_bias": false, "bias_initializer": {"class_name": "Zeros", "config": {}}, "bias_regularizer": null, "activity_regularizer": null, "bias_constraint": null, "depth_multiplier": 1, "depthwise_initializer": {"class_name": "EfficientConv2DKernelInitializer", "config": {}}, "depthwise_regularizer": null, "depthwise_constraint": null}, "inbound_nodes": [[["swish_12", 0, 0, {}]]]}, {"name": "batch_normalization_13", "class_name": "BatchNormalization", "config": {"name": "batch_normalization_13", "trainable": true, "axis": -1, "momentum": 0.99, "epsilon": 0.001, "center": true, "scale": true, "beta_initializer": {"class_name": "Zeros", "config": {}}, "gamma_initializer": {"class_name": "Ones", "config": {}}, "moving_mean_initializer": {"class_name": "Zeros", "config": {}}, "moving_variance_initializer": {"class_name": "Ones", "config": {}}, "beta_regularizer": null, "gamma_regularizer": null, "beta_constraint": null, "gamma_constraint": null}, "inbound_nodes": [[["depthwise_conv2d_5", 0, 0, {}]]]}, {"name": "swish_13", "class_name": "Swish", "config": {"name": "swish_13", "trainable": true}, "inbound_nodes": [[["batch_normalization_13", 0, 0, {}]]]}, {"name": "lambda_5", "class_name": "Lambda", "config": {"name": "lambda_5", "trainable": true, "function": ["4wEAAAAAAAAAAQAAAAUAAAATAAAAcxAAAAB0AGoBfACIAGQBZAKNA1MAKQNOVCkC2gRheGlz2ghr\nZWVwZGltcykC2gFL2gRtZWFuKQHaAWEpAdoMc3BhdGlhbF9kaW1zqQD6UC9ob21lL3BhdWwvYW5h\nY29uZGEzL2VudnMvR1NPQy9saWIvcHl0aG9uMy43L3NpdGUtcGFja2FnZXMvZWZmaWNpZW50bmV0\nL21vZGVsLnB52gg8bGFtYmRhPlcAAADzAAAAAA==\n", null, [[1, 2]]], "function_type": "lambda", "output_shape": null, "output_shape_type": "raw", "arguments": {}}, "inbound_nodes": [[["swish_13", 0, 0, {}]]]}, {"name": "conv2d_17", "class_name": "Conv2D", "config": {"name": "conv2d_17", "trainable": true, "filters": 8, "kernel_size": [1, 1], "strides": [1, 1], "padding": "same", "data_format": "channels_last", "dilation_rate": [1, 1], "activation": "linear", "use_bias": true, "kernel_initializer": {"class_name": "EfficientConv2DKernelInitializer", "config": {}}, "bias_initializer": {"class_name": "Zeros", "config": {}}, "kernel_regularizer": null, "bias_regularizer": null, "activity_regularizer": null, "kernel_constraint": null, "bias_constraint": null}, "inbound_nodes": [[["lambda_5", 0, 0, {}]]]}, {"name": "swish_14", "class_name": "Swish", "config": {"name": "swish_14", "trainable": true}, "inbound_nodes": [[["conv2d_17", 0, 0, {}]]]}, {"name": "conv2d_18", "class_name": "Conv2D", "config": {"name": "conv2d_18", "trainable": true, "filters": 192, "kernel_size": [1, 1], "strides": [1, 1], "padding": "same", "data_format": "channels_last", "dilation_rate": [1, 1], "activation": "linear", "use_bias": true, "kernel_initializer": {"class_name": "EfficientConv2DKernelInitializer", "config": {}}, "bias_initializer": {"class_name": "Zeros", "config": {}}, "kernel_regularizer": null, "bias_regularizer": null, "activity_regularizer": null, "kernel_constraint": null, "bias_constraint": null}, "inbound_nodes": [[["swish_14", 0, 0, {}]]]}, {"name": "activation_5", "class_name": "Activation", "config": {"name": "activation_5", "trainable": true, "activation": "sigmoid"}, "inbound_nodes": [[["conv2d_18", 0, 0, {}]]]}, {"name": "multiply_5", "class_name": "Multiply", "config": {"name": "multiply_5", "trainable": true}, "inbound_nodes": [[["activation_5", 0, 0, {}], ["swish_13", 0, 0, {}]]]}, {"name": "conv2d_19", "class_name": "Conv2D", "config": {"name": "conv2d_19", "trainable": true, "filters": 32, "kernel_size": [1, 1], "strides": [1, 1], "padding": "same", "data_format": "channels_last", "dilation_rate": [1, 1], "activation": "linear", "use_bias": false, "kernel_initializer": {"class_name": "EfficientConv2DKernelInitializer", "config": {}}, "bias_initializer": {"class_name": "Zeros", "config": {}}, "kernel_regularizer": null, "bias_regularizer": null, "activity_regularizer": null, "kernel_constraint": null, "bias_constraint": null}, "inbound_nodes": [[["multiply_5", 0, 0, {}]]]}, {"name": "batch_normalization_14", "class_name": "BatchNormalization", "config": {"name": "batch_normalization_14", "trainable": true, "axis": -1, "momentum": 0.99, "epsilon": 0.001, "center": true, "scale": true, "beta_initializer": {"class_name": "Zeros", "config": {}}, "gamma_initializer": {"class_name": "Ones", "config": {}}, "moving_mean_initializer": {"class_name": "Zeros", "config": {}}, "moving_variance_initializer": {"class_name": "Ones", "config": {}}, "beta_regularizer": null, "gamma_regularizer": null, "beta_constraint": null, "gamma_constraint": null}, "inbound_nodes": [[["conv2d_19", 0, 0, {}]]]}, {"name": "drop_connect_3", "class_name": "DropConnect", "config": {"name": "drop_connect_3", "trainable": true, "drop_connect_rate": 0.0625}, "inbound_nodes": [[["batch_normalization_14", 0, 0, {}]]]}, {"name": "add_3", "class_name": "Add", "config": {"name": "add_3", "trainable": true}, "inbound_nodes": [[["drop_connect_3", 0, 0, {}], ["add_2", 0, 0, {}]]]}, {"name": "conv2d_20", "class_name": "Conv2D", "config": {"name": "conv2d_20", "trainable": true, "filters": 192, "kernel_size": [1, 1], "strides": [1, 1], "padding": "same", "data_format": "channels_last", "dilation_rate": [1, 1], "activation": "linear", "use_bias": false, "kernel_initializer": {"class_name": "EfficientConv2DKernelInitializer", "config": {}}, "bias_initializer": {"class_name": "Zeros", "config": {}}, "kernel_regularizer": null, "bias_regularizer": null, "activity_regularizer": null, "kernel_constraint": null, "bias_constraint": null}, "inbound_nodes": [[["add_3", 0, 0, {}]]]}, {"name": "batch_normalization_15", "class_name": "BatchNormalization", "config": {"name": "batch_normalization_15", "trainable": true, "axis": -1, "momentum": 0.99, "epsilon": 0.001, "center": true, "scale": true, "beta_initializer": {"class_name": "Zeros", "config": {}}, "gamma_initializer": {"class_name": "Ones", "config": {}}, "moving_mean_initializer": {"class_name": "Zeros", "config": {}}, "moving_variance_initializer": {"class_name": "Ones", "config": {}}, "beta_regularizer": null, "gamma_regularizer": null, "beta_constraint": null, "gamma_constraint": null}, "inbound_nodes": [[["conv2d_20", 0, 0, {}]]]}, {"name": "swish_15", "class_name": "Swish", "config": {"name": "swish_15", "trainable": true}, "inbound_nodes": [[["batch_normalization_15", 0, 0, {}]]]}, {"name": "depthwise_conv2d_6", "class_name": "DepthwiseConv2D", "config": {"name": "depthwise_conv2d_6", "trainable": true, "kernel_size": [5, 5], "strides": [2, 2], "padding": "same", "data_format": "channels_last", "dilation_rate": [1, 1], "activation": "linear", "use_bias": false, "bias_initializer": {"class_name": "Zeros", "config": {}}, "bias_regularizer": null, "activity_regularizer": null, "bias_constraint": null, "depth_multiplier": 1, "depthwise_initializer": {"class_name": "EfficientConv2DKernelInitializer", "config": {}}, "depthwise_regularizer": null, "depthwise_constraint": null}, "inbound_nodes": [[["swish_15", 0, 0, {}]]]}, {"name": "batch_normalization_16", "class_name": "BatchNormalization", "config": {"name": "batch_normalization_16", "trainable": true, "axis": -1, "momentum": 0.99, "epsilon": 0.001, "center": true, "scale": true, "beta_initializer": {"class_name": "Zeros", "config": {}}, "gamma_initializer": {"class_name": "Ones", "config": {}}, "moving_mean_initializer": {"class_name": "Zeros", "config": {}}, "moving_variance_initializer": {"class_name": "Ones", "config": {}}, "beta_regularizer": null, "gamma_regularizer": null, "beta_constraint": null, "gamma_constraint": null}, "inbound_nodes": [[["depthwise_conv2d_6", 0, 0, {}]]]}, {"name": "swish_16", "class_name": "Swish", "config": {"name": "swish_16", "trainable": true}, "inbound_nodes": [[["batch_normalization_16", 0, 0, {}]]]}, {"name": "lambda_6", "class_name": "Lambda", "config": {"name": "lambda_6", "trainable": true, "function": ["4wEAAAAAAAAAAQAAAAUAAAATAAAAcxAAAAB0AGoBfACIAGQBZAKNA1MAKQNOVCkC2gRheGlz2ghr\nZWVwZGltcykC2gFL2gRtZWFuKQHaAWEpAdoMc3BhdGlhbF9kaW1zqQD6UC9ob21lL3BhdWwvYW5h\nY29uZGEzL2VudnMvR1NPQy9saWIvcHl0aG9uMy43L3NpdGUtcGFja2FnZXMvZWZmaWNpZW50bmV0\nL21vZGVsLnB52gg8bGFtYmRhPlcAAADzAAAAAA==\n", null, [[1, 2]]], "function_type": "lambda", "output_shape": null, "output_shape_type": "raw", "arguments": {}}, "inbound_nodes": [[["swish_16", 0, 0, {}]]]}, {"name": "conv2d_21", "class_name": "Conv2D", "config": {"name": "conv2d_21", "trainable": true, "filters": 8, "kernel_size": [1, 1], "strides": [1, 1], "padding": "same", "data_format": "channels_last", "dilation_rate": [1, 1], "activation": "linear", "use_bias": true, "kernel_initializer": {"class_name": "EfficientConv2DKernelInitializer", "config": {}}, "bias_initializer": {"class_name": "Zeros", "config": {}}, "kernel_regularizer": null, "bias_regularizer": null, "activity_regularizer": null, "kernel_constraint": null, "bias_constraint": null}, "inbound_nodes": [[["lambda_6", 0, 0, {}]]]}, {"name": "swish_17", "class_name": "Swish", "config": {"name": "swish_17", "trainable": true}, "inbound_nodes": [[["conv2d_21", 0, 0, {}]]]}, {"name": "conv2d_22", "class_name": "Conv2D", "config": {"name": "conv2d_22", "trainable": true, "filters": 192, "kernel_size": [1, 1], "strides": [1, 1], "padding": "same", "data_format": "channels_last", "dilation_rate": [1, 1], "activation": "linear", "use_bias": true, "kernel_initializer": {"class_name": "EfficientConv2DKernelInitializer", "config": {}}, "bias_initializer": {"class_name": "Zeros", "config": {}}, "kernel_regularizer": null, "bias_regularizer": null, "activity_regularizer": null, "kernel_constraint": null, "bias_constraint": null}, "inbound_nodes": [[["swish_17", 0, 0, {}]]]}, {"name": "activation_6", "class_name": "Activation", "config": {"name": "activation_6", "trainable": true, "activation": "sigmoid"}, "inbound_nodes": [[["conv2d_22", 0, 0, {}]]]}, {"name": "multiply_6", "class_name": "Multiply", "config": {"name": "multiply_6", "trainable": true}, "inbound_nodes": [[["activation_6", 0, 0, {}], ["swish_16", 0, 0, {}]]]}, {"name": "conv2d_23", "class_name": "Conv2D", "config": {"name": "conv2d_23", "trainable": true, "filters": 48, "kernel_size": [1, 1], "strides": [1, 1], "padding": "same", "data_format": "channels_last", "dilation_rate": [1, 1], "activation": "linear", "use_bias": false, "kernel_initializer": {"class_name": "EfficientConv2DKernelInitializer", "config": {}}, "bias_initializer": {"class_name": "Zeros", "config": {}}, "kernel_regularizer": null, "bias_regularizer": null, "activity_regularizer": null, "kernel_constraint": null, "bias_constraint": null}, "inbound_nodes": [[["multiply_6", 0, 0, {}]]]}, {"name": "batch_normalization_17", "class_name": "BatchNormalization", "config": {"name": "batch_normalization_17", "trainable": true, "axis": -1, "momentum": 0.99, "epsilon": 0.001, "center": true, "scale": true, "beta_initializer": {"class_name": "Zeros", "config": {}}, "gamma_initializer": {"class_name": "Ones", "config": {}}, "moving_mean_initializer": {"class_name": "Zeros", "config": {}}, "moving_variance_initializer": {"class_name": "Ones", "config": {}}, "beta_regularizer": null, "gamma_regularizer": null, "beta_constraint": null, "gamma_constraint": null}, "inbound_nodes": [[["conv2d_23", 0, 0, {}]]]}, {"name": "conv2d_24", "class_name": "Conv2D", "config": {"name": "conv2d_24", "trainable": true, "filters": 288, "kernel_size": [1, 1], "strides": [1, 1], "padding": "same", "data_format": "channels_last", "dilation_rate": [1, 1], "activation": "linear", "use_bias": false, "kernel_initializer": {"class_name": "EfficientConv2DKernelInitializer", "config": {}}, "bias_initializer": {"class_name": "Zeros", "config": {}}, "kernel_regularizer": null, "bias_regularizer": null, "activity_regularizer": null, "kernel_constraint": null, "bias_constraint": null}, "inbound_nodes": [[["batch_normalization_17", 0, 0, {}]]]}, {"name": "batch_normalization_18", "class_name": "BatchNormalization", "config": {"name": "batch_normalization_18", "trainable": true, "axis": -1, "momentum": 0.99, "epsilon": 0.001, "center": true, "scale": true, "beta_initializer": {"class_name": "Zeros", "config": {}}, "gamma_initializer": {"class_name": "Ones", "config": {}}, "moving_mean_initializer": {"class_name": "Zeros", "config": {}}, "moving_variance_initializer": {"class_name": "Ones", "config": {}}, "beta_regularizer": null, "gamma_regularizer": null, "beta_constraint": null, "gamma_constraint": null}, "inbound_nodes": [[["conv2d_24", 0, 0, {}]]]}, {"name": "swish_18", "class_name": "Swish", "config": {"name": "swish_18", "trainable": true}, "inbound_nodes": [[["batch_normalization_18", 0, 0, {}]]]}, {"name": "depthwise_conv2d_7", "class_name": "DepthwiseConv2D", "config": {"name": "depthwise_conv2d_7", "trainable": true, "kernel_size": [5, 5], "strides": [1, 1], "padding": "same", "data_format": "channels_last", "dilation_rate": [1, 1], "activation": "linear", "use_bias": false, "bias_initializer": {"class_name": "Zeros", "config": {}}, "bias_regularizer": null, "activity_regularizer": null, "bias_constraint": null, "depth_multiplier": 1, "depthwise_initializer": {"class_name": "EfficientConv2DKernelInitializer", "config": {}}, "depthwise_regularizer": null, "depthwise_constraint": null}, "inbound_nodes": [[["swish_18", 0, 0, {}]]]}, {"name": "batch_normalization_19", "class_name": "BatchNormalization", "config": {"name": "batch_normalization_19", "trainable": true, "axis": -1, "momentum": 0.99, "epsilon": 0.001, "center": true, "scale": true, "beta_initializer": {"class_name": "Zeros", "config": {}}, "gamma_initializer": {"class_name": "Ones", "config": {}}, "moving_mean_initializer": {"class_name": "Zeros", "config": {}}, "moving_variance_initializer": {"class_name": "Ones", "config": {}}, "beta_regularizer": null, "gamma_regularizer": null, "beta_constraint": null, "gamma_constraint": null}, "inbound_nodes": [[["depthwise_conv2d_7", 0, 0, {}]]]}, {"name": "swish_19", "class_name": "Swish", "config": {"name": "swish_19", "trainable": true}, "inbound_nodes": [[["batch_normalization_19", 0, 0, {}]]]}, {"name": "lambda_7", "class_name": "Lambda", "config": {"name": "lambda_7", "trainable": true, "function": ["4wEAAAAAAAAAAQAAAAUAAAATAAAAcxAAAAB0AGoBfACIAGQBZAKNA1MAKQNOVCkC2gRheGlz2ghr\nZWVwZGltcykC2gFL2gRtZWFuKQHaAWEpAdoMc3BhdGlhbF9kaW1zqQD6UC9ob21lL3BhdWwvYW5h\nY29uZGEzL2VudnMvR1NPQy9saWIvcHl0aG9uMy43L3NpdGUtcGFja2FnZXMvZWZmaWNpZW50bmV0\nL21vZGVsLnB52gg8bGFtYmRhPlcAAADzAAAAAA==\n", null, [[1, 2]]], "function_type": "lambda", "output_shape": null, "output_shape_type": "raw", "arguments": {}}, "inbound_nodes": [[["swish_19", 0, 0, {}]]]}, {"name": "conv2d_25", "class_name": "Conv2D", "config": {"name": "conv2d_25", "trainable": true, "filters": 12, "kernel_size": [1, 1], "strides": [1, 1], "padding": "same", "data_format": "channels_last", "dilation_rate": [1, 1], "activation": "linear", "use_bias": true, "kernel_initializer": {"class_name": "EfficientConv2DKernelInitializer", "config": {}}, "bias_initializer": {"class_name": "Zeros", "config": {}}, "kernel_regularizer": null, "bias_regularizer": null, "activity_regularizer": null, "kernel_constraint": null, "bias_constraint": null}, "inbound_nodes": [[["lambda_7", 0, 0, {}]]]}, {"name": "swish_20", "class_name": "Swish", "config": {"name": "swish_20", "trainable": true}, "inbound_nodes": [[["conv2d_25", 0, 0, {}]]]}, {"name": "conv2d_26", "class_name": "Conv2D", "config": {"name": "conv2d_26", "trainable": true, "filters": 288, "kernel_size": [1, 1], "strides": [1, 1], "padding": "same", "data_format": "channels_last", "dilation_rate": [1, 1], "activation": "linear", "use_bias": true, "kernel_initializer": {"class_name": "EfficientConv2DKernelInitializer", "config": {}}, "bias_initializer": {"class_name": "Zeros", "config": {}}, "kernel_regularizer": null, "bias_regularizer": null, "activity_regularizer": null, "kernel_constraint": null, "bias_constraint": null}, "inbound_nodes": [[["swish_20", 0, 0, {}]]]}, {"name": "activation_7", "class_name": "Activation", "config": {"name": "activation_7", "trainable": true, "activation": "sigmoid"}, "inbound_nodes": [[["conv2d_26", 0, 0, {}]]]}, {"name": "multiply_7", "class_name": "Multiply", "config": {"name": "multiply_7", "trainable": true}, "inbound_nodes": [[["activation_7", 0, 0, {}], ["swish_19", 0, 0, {}]]]}, {"name": "conv2d_27", "class_name": "Conv2D", "config": {"name": "conv2d_27", "trainable": true, "filters": 48, "kernel_size": [1, 1], "strides": [1, 1], "padding": "same", "data_format": "channels_last", "dilation_rate": [1, 1], "activation": "linear", "use_bias": false, "kernel_initializer": {"class_name": "EfficientConv2DKernelInitializer", "config": {}}, "bias_initializer": {"class_name": "Zeros", "config": {}}, "kernel_regularizer": null, "bias_regularizer": null, "activity_regularizer": null, "kernel_constraint": null, "bias_constraint": null}, "inbound_nodes": [[["multiply_7", 0, 0, {}]]]}, {"name": "batch_normalization_20", "class_name": "BatchNormalization", "config": {"name": "batch_normalization_20", "trainable": true, "axis": -1, "momentum": 0.99, "epsilon": 0.001, "center": true, "scale": true, "beta_initializer": {"class_name": "Zeros", "config": {}}, "gamma_initializer": {"class_name": "Ones", "config": {}}, "moving_mean_initializer": {"class_name": "Zeros", "config": {}}, "moving_variance_initializer": {"class_name": "Ones", "config": {}}, "beta_regularizer": null, "gamma_regularizer": null, "beta_constraint": null, "gamma_constraint": null}, "inbound_nodes": [[["conv2d_27", 0, 0, {}]]]}, {"name": "drop_connect_4", "class_name": "DropConnect", "config": {"name": "drop_connect_4", "trainable": true, "drop_connect_rate": 0.08750000000000001}, "inbound_nodes": [[["batch_normalization_20", 0, 0, {}]]]}, {"name": "add_4", "class_name": "Add", "config": {"name": "add_4", "trainable": true}, "inbound_nodes": [[["drop_connect_4", 0, 0, {}], ["batch_normalization_17", 0, 0, {}]]]}, {"name": "conv2d_28", "class_name": "Conv2D", "config": {"name": "conv2d_28", "trainable": true, "filters": 288, "kernel_size": [1, 1], "strides": [1, 1], "padding": "same", "data_format": "channels_last", "dilation_rate": [1, 1], "activation": "linear", "use_bias": false, "kernel_initializer": {"class_name": "EfficientConv2DKernelInitializer", "config": {}}, "bias_initializer": {"class_name": "Zeros", "config": {}}, "kernel_regularizer": null, "bias_regularizer": null, "activity_regularizer": null, "kernel_constraint": null, "bias_constraint": null}, "inbound_nodes": [[["add_4", 0, 0, {}]]]}, {"name": "batch_normalization_21", "class_name": "BatchNormalization", "config": {"name": "batch_normalization_21", "trainable": true, "axis": -1, "momentum": 0.99, "epsilon": 0.001, "center": true, "scale": true, "beta_initializer": {"class_name": "Zeros", "config": {}}, "gamma_initializer": {"class_name": "Ones", "config": {}}, "moving_mean_initializer": {"class_name": "Zeros", "config": {}}, "moving_variance_initializer": {"class_name": "Ones", "config": {}}, "beta_regularizer": null, "gamma_regularizer": null, "beta_constraint": null, "gamma_constraint": null}, "inbound_nodes": [[["conv2d_28", 0, 0, {}]]]}, {"name": "swish_21", "class_name": "Swish", "config": {"name": "swish_21", "trainable": true}, "inbound_nodes": [[["batch_normalization_21", 0, 0, {}]]]}, {"name": "depthwise_conv2d_8", "class_name": "DepthwiseConv2D", "config": {"name": "depthwise_conv2d_8", "trainable": true, "kernel_size": [5, 5], "strides": [1, 1], "padding": "same", "data_format": "channels_last", "dilation_rate": [1, 1], "activation": "linear", "use_bias": false, "bias_initializer": {"class_name": "Zeros", "config": {}}, "bias_regularizer": null, "activity_regularizer": null, "bias_constraint": null, "depth_multiplier": 1, "depthwise_initializer": {"class_name": "EfficientConv2DKernelInitializer", "config": {}}, "depthwise_regularizer": null, "depthwise_constraint": null}, "inbound_nodes": [[["swish_21", 0, 0, {}]]]}, {"name": "batch_normalization_22", "class_name": "BatchNormalization", "config": {"name": "batch_normalization_22", "trainable": true, "axis": -1, "momentum": 0.99, "epsilon": 0.001, "center": true, "scale": true, "beta_initializer": {"class_name": "Zeros", "config": {}}, "gamma_initializer": {"class_name": "Ones", "config": {}}, "moving_mean_initializer": {"class_name": "Zeros", "config": {}}, "moving_variance_initializer": {"class_name": "Ones", "config": {}}, "beta_regularizer": null, "gamma_regularizer": null, "beta_constraint": null, "gamma_constraint": null}, "inbound_nodes": [[["depthwise_conv2d_8", 0, 0, {}]]]}, {"name": "swish_22", "class_name": "Swish", "config": {"name": "swish_22", "trainable": true}, "inbound_nodes": [[["batch_normalization_22", 0, 0, {}]]]}, {"name": "lambda_8", "class_name": "Lambda", "config": {"name": "lambda_8", "trainable": true, "function": ["4wEAAAAAAAAAAQAAAAUAAAATAAAAcxAAAAB0AGoBfACIAGQBZAKNA1MAKQNOVCkC2gRheGlz2ghr\nZWVwZGltcykC2gFL2gRtZWFuKQHaAWEpAdoMc3BhdGlhbF9kaW1zqQD6UC9ob21lL3BhdWwvYW5h\nY29uZGEzL2VudnMvR1NPQy9saWIvcHl0aG9uMy43L3NpdGUtcGFja2FnZXMvZWZmaWNpZW50bmV0\nL21vZGVsLnB52gg8bGFtYmRhPlcAAADzAAAAAA==\n", null, [[1, 2]]], "function_type": "lambda", "output_shape": null, "output_shape_type": "raw", "arguments": {}}, "inbound_nodes": [[["swish_22", 0, 0, {}]]]}, {"name": "conv2d_29", "class_name": "Conv2D", "config": {"name": "conv2d_29", "trainable": true, "filters": 12, "kernel_size": [1, 1], "strides": [1, 1], "padding": "same", "data_format": "channels_last", "dilation_rate": [1, 1], "activation": "linear", "use_bias": true, "kernel_initializer": {"class_name": "EfficientConv2DKernelInitializer", "config": {}}, "bias_initializer": {"class_name": "Zeros", "config": {}}, "kernel_regularizer": null, "bias_regularizer": null, "activity_regularizer": null, "kernel_constraint": null, "bias_constraint": null}, "inbound_nodes": [[["lambda_8", 0, 0, {}]]]}, {"name": "swish_23", "class_name": "Swish", "config": {"name": "swish_23", "trainable": true}, "inbound_nodes": [[["conv2d_29", 0, 0, {}]]]}, {"name": "conv2d_30", "class_name": "Conv2D", "config": {"name": "conv2d_30", "trainable": true, "filters": 288, "kernel_size": [1, 1], "strides": [1, 1], "padding": "same", "data_format": "channels_last", "dilation_rate": [1, 1], "activation": "linear", "use_bias": true, "kernel_initializer": {"class_name": "EfficientConv2DKernelInitializer", "config": {}}, "bias_initializer": {"class_name": "Zeros", "config": {}}, "kernel_regularizer": null, "bias_regularizer": null, "activity_regularizer": null, "kernel_constraint": null, "bias_constraint": null}, "inbound_nodes": [[["swish_23", 0, 0, {}]]]}, {"name": "activation_8", "class_name": "Activation", "config": {"name": "activation_8", "trainable": true, "activation": "sigmoid"}, "inbound_nodes": [[["conv2d_30", 0, 0, {}]]]}, {"name": "multiply_8", "class_name": "Multiply", "config": {"name": "multiply_8", "trainable": true}, "inbound_nodes": [[["activation_8", 0, 0, {}], ["swish_22", 0, 0, {}]]]}, {"name": "conv2d_31", "class_name": "Conv2D", "config": {"name": "conv2d_31", "trainable": true, "filters": 48, "kernel_size": [1, 1], "strides": [1, 1], "padding": "same", "data_format": "channels_last", "dilation_rate": [1, 1], "activation": "linear", "use_bias": false, "kernel_initializer": {"class_name": "EfficientConv2DKernelInitializer", "config": {}}, "bias_initializer": {"class_name": "Zeros", "config": {}}, "kernel_regularizer": null, "bias_regularizer": null, "activity_regularizer": null, "kernel_constraint": null, "bias_constraint": null}, "inbound_nodes": [[["multiply_8", 0, 0, {}]]]}, {"name": "batch_normalization_23", "class_name": "BatchNormalization", "config": {"name": "batch_normalization_23", "trainable": true, "axis": -1, "momentum": 0.99, "epsilon": 0.001, "center": true, "scale": true, "beta_initializer": {"class_name": "Zeros", "config": {}}, "gamma_initializer": {"class_name": "Ones", "config": {}}, "moving_mean_initializer": {"class_name": "Zeros", "config": {}}, "moving_variance_initializer": {"class_name": "Ones", "config": {}}, "beta_regularizer": null, "gamma_regularizer": null, "beta_constraint": null, "gamma_constraint": null}, "inbound_nodes": [[["conv2d_31", 0, 0, {}]]]}, {"name": "drop_connect_5", "class_name": "DropConnect", "config": {"name": "drop_connect_5", "trainable": true, "drop_connect_rate": 0.1}, "inbound_nodes": [[["batch_normalization_23", 0, 0, {}]]]}, {"name": "add_5", "class_name": "Add", "config": {"name": "add_5", "trainable": true}, "inbound_nodes": [[["drop_connect_5", 0, 0, {}], ["add_4", 0, 0, {}]]]}, {"name": "conv2d_32", "class_name": "Conv2D", "config": {"name": "conv2d_32", "trainable": true, "filters": 288, "kernel_size": [1, 1], "strides": [1, 1], "padding": "same", "data_format": "channels_last", "dilation_rate": [1, 1], "activation": "linear", "use_bias": false, "kernel_initializer": {"class_name": "EfficientConv2DKernelInitializer", "config": {}}, "bias_initializer": {"class_name": "Zeros", "config": {}}, "kernel_regularizer": null, "bias_regularizer": null, "activity_regularizer": null, "kernel_constraint": null, "bias_constraint": null}, "inbound_nodes": [[["add_5", 0, 0, {}]]]}, {"name": "batch_normalization_24", "class_name": "BatchNormalization", "config": {"name": "batch_normalization_24", "trainable": true, "axis": -1, "momentum": 0.99, "epsilon": 0.001, "center": true, "scale": true, "beta_initializer": {"class_name": "Zeros", "config": {}}, "gamma_initializer": {"class_name": "Ones", "config": {}}, "moving_mean_initializer": {"class_name": "Zeros", "config": {}}, "moving_variance_initializer": {"class_name": "Ones", "config": {}}, "beta_regularizer": null, "gamma_regularizer": null, "beta_constraint": null, "gamma_constraint": null}, "inbound_nodes": [[["conv2d_32", 0, 0, {}]]]}, {"name": "swish_24", "class_name": "Swish", "config": {"name": "swish_24", "trainable": true}, "inbound_nodes": [[["batch_normalization_24", 0, 0, {}]]]}, {"name": "depthwise_conv2d_9", "class_name": "DepthwiseConv2D", "config": {"name": "depthwise_conv2d_9", "trainable": true, "kernel_size": [3, 3], "strides": [2, 2], "padding": "same", "data_format": "channels_last", "dilation_rate": [1, 1], "activation": "linear", "use_bias": false, "bias_initializer": {"class_name": "Zeros", "config": {}}, "bias_regularizer": null, "activity_regularizer": null, "bias_constraint": null, "depth_multiplier": 1, "depthwise_initializer": {"class_name": "EfficientConv2DKernelInitializer", "config": {}}, "depthwise_regularizer": null, "depthwise_constraint": null}, "inbound_nodes": [[["swish_24", 0, 0, {}]]]}, {"name": "batch_normalization_25", "class_name": "BatchNormalization", "config": {"name": "batch_normalization_25", "trainable": true, "axis": -1, "momentum": 0.99, "epsilon": 0.001, "center": true, "scale": true, "beta_initializer": {"class_name": "Zeros", "config": {}}, "gamma_initializer": {"class_name": "Ones", "config": {}}, "moving_mean_initializer": {"class_name": "Zeros", "config": {}}, "moving_variance_initializer": {"class_name": "Ones", "config": {}}, "beta_regularizer": null, "gamma_regularizer": null, "beta_constraint": null, "gamma_constraint": null}, "inbound_nodes": [[["depthwise_conv2d_9", 0, 0, {}]]]}, {"name": "swish_25", "class_name": "Swish", "config": {"name": "swish_25", "trainable": true}, "inbound_nodes": [[["batch_normalization_25", 0, 0, {}]]]}, {"name": "lambda_9", "class_name": "Lambda", "config": {"name": "lambda_9", "trainable": true, "function": ["4wEAAAAAAAAAAQAAAAUAAAATAAAAcxAAAAB0AGoBfACIAGQBZAKNA1MAKQNOVCkC2gRheGlz2ghr\nZWVwZGltcykC2gFL2gRtZWFuKQHaAWEpAdoMc3BhdGlhbF9kaW1zqQD6UC9ob21lL3BhdWwvYW5h\nY29uZGEzL2VudnMvR1NPQy9saWIvcHl0aG9uMy43L3NpdGUtcGFja2FnZXMvZWZmaWNpZW50bmV0\nL21vZGVsLnB52gg8bGFtYmRhPlcAAADzAAAAAA==\n", null, [[1, 2]]], "function_type": "lambda", "output_shape": null, "output_shape_type": "raw", "arguments": {}}, "inbound_nodes": [[["swish_25", 0, 0, {}]]]}, {"name": "conv2d_33", "class_name": "Conv2D", "config": {"name": "conv2d_33", "trainable": true, "filters": 12, "kernel_size": [1, 1], "strides": [1, 1], "padding": "same", "data_format": "channels_last", "dilation_rate": [1, 1], "activation": "linear", "use_bias": true, "kernel_initializer": {"class_name": "EfficientConv2DKernelInitializer", "config": {}}, "bias_initializer": {"class_name": "Zeros", "config": {}}, "kernel_regularizer": null, "bias_regularizer": null, "activity_regularizer": null, "kernel_constraint": null, "bias_constraint": null}, "inbound_nodes": [[["lambda_9", 0, 0, {}]]]}, {"name": "swish_26", "class_name": "Swish", "config": {"name": "swish_26", "trainable": true}, "inbound_nodes": [[["conv2d_33", 0, 0, {}]]]}, {"name": "conv2d_34", "class_name": "Conv2D", "config": {"name": "conv2d_34", "trainable": true, "filters": 288, "kernel_size": [1, 1], "strides": [1, 1], "padding": "same", "data_format": "channels_last", "dilation_rate": [1, 1], "activation": "linear", "use_bias": true, "kernel_initializer": {"class_name": "EfficientConv2DKernelInitializer", "config": {}}, "bias_initializer": {"class_name": "Zeros", "config": {}}, "kernel_regularizer": null, "bias_regularizer": null, "activity_regularizer": null, "kernel_constraint": null, "bias_constraint": null}, "inbound_nodes": [[["swish_26", 0, 0, {}]]]}, {"name": "activation_9", "class_name": "Activation", "config": {"name": "activation_9", "trainable": true, "activation": "sigmoid"}, "inbound_nodes": [[["conv2d_34", 0, 0, {}]]]}, {"name": "multiply_9", "class_name": "Multiply", "config": {"name": "multiply_9", "trainable": true}, "inbound_nodes": [[["activation_9", 0, 0, {}], ["swish_25", 0, 0, {}]]]}, {"name": "conv2d_35", "class_name": "Conv2D", "config": {"name": "conv2d_35", "trainable": true, "filters": 96, "kernel_size": [1, 1], "strides": [1, 1], "padding": "same", "data_format": "channels_last", "dilation_rate": [1, 1], "activation": "linear", "use_bias": false, "kernel_initializer": {"class_name": "EfficientConv2DKernelInitializer", "config": {}}, "bias_initializer": {"class_name": "Zeros", "config": {}}, "kernel_regularizer": null, "bias_regularizer": null, "activity_regularizer": null, "kernel_constraint": null, "bias_constraint": null}, "inbound_nodes": [[["multiply_9", 0, 0, {}]]]}, {"name": "batch_normalization_26", "class_name": "BatchNormalization", "config": {"name": "batch_normalization_26", "trainable": true, "axis": -1, "momentum": 0.99, "epsilon": 0.001, "center": true, "scale": true, "beta_initializer": {"class_name": "Zeros", "config": {}}, "gamma_initializer": {"class_name": "Ones", "config": {}}, "moving_mean_initializer": {"class_name": "Zeros", "config": {}}, "moving_variance_initializer": {"class_name": "Ones", "config": {}}, "beta_regularizer": null, "gamma_regularizer": null, "beta_constraint": null, "gamma_constraint": null}, "inbound_nodes": [[["conv2d_35", 0, 0, {}]]]}, {"name": "conv2d_36", "class_name": "Conv2D", "config": {"name": "conv2d_36", "trainable": true, "filters": 576, "kernel_size": [1, 1], "strides": [1, 1], "padding": "same", "data_format": "channels_last", "dilation_rate": [1, 1], "activation": "linear", "use_bias": false, "kernel_initializer": {"class_name": "EfficientConv2DKernelInitializer", "config": {}}, "bias_initializer": {"class_name": "Zeros", "config": {}}, "kernel_regularizer": null, "bias_regularizer": null, "activity_regularizer": null, "kernel_constraint": null, "bias_constraint": null}, "inbound_nodes": [[["batch_normalization_26", 0, 0, {}]]]}, {"name": "batch_normalization_27", "class_name": "BatchNormalization", "config": {"name": "batch_normalization_27", "trainable": true, "axis": -1, "momentum": 0.99, "epsilon": 0.001, "center": true, "scale": true, "beta_initializer": {"class_name": "Zeros", "config": {}}, "gamma_initializer": {"class_name": "Ones", "config": {}}, "moving_mean_initializer": {"class_name": "Zeros", "config": {}}, "moving_variance_initializer": {"class_name": "Ones", "config": {}}, "beta_regularizer": null, "gamma_regularizer": null, "beta_constraint": null, "gamma_constraint": null}, "inbound_nodes": [[["conv2d_36", 0, 0, {}]]]}, {"name": "swish_27", "class_name": "Swish", "config": {"name": "swish_27", "trainable": true}, "inbound_nodes": [[["batch_normalization_27", 0, 0, {}]]]}, {"name": "depthwise_conv2d_10", "class_name": "DepthwiseConv2D", "config": {"name": "depthwise_conv2d_10", "trainable": true, "kernel_size": [3, 3], "strides": [1, 1], "padding": "same", "data_format": "channels_last", "dilation_rate": [1, 1], "activation": "linear", "use_bias": false, "bias_initializer": {"class_name": "Zeros", "config": {}}, "bias_regularizer": null, "activity_regularizer": null, "bias_constraint": null, "depth_multiplier": 1, "depthwise_initializer": {"class_name": "EfficientConv2DKernelInitializer", "config": {}}, "depthwise_regularizer": null, "depthwise_constraint": null}, "inbound_nodes": [[["swish_27", 0, 0, {}]]]}, {"name": "batch_normalization_28", "class_name": "BatchNormalization", "config": {"name": "batch_normalization_28", "trainable": true, "axis": -1, "momentum": 0.99, "epsilon": 0.001, "center": true, "scale": true, "beta_initializer": {"class_name": "Zeros", "config": {}}, "gamma_initializer": {"class_name": "Ones", "config": {}}, "moving_mean_initializer": {"class_name": "Zeros", "config": {}}, "moving_variance_initializer": {"class_name": "Ones", "config": {}}, "beta_regularizer": null, "gamma_regularizer": null, "beta_constraint": null, "gamma_constraint": null}, "inbound_nodes": [[["depthwise_conv2d_10", 0, 0, {}]]]}, {"name": "swish_28", "class_name": "Swish", "config": {"name": "swish_28", "trainable": true}, "inbound_nodes": [[["batch_normalization_28", 0, 0, {}]]]}, {"name": "lambda_10", "class_name": "Lambda", "config": {"name": "lambda_10", "trainable": true, "function": ["4wEAAAAAAAAAAQAAAAUAAAATAAAAcxAAAAB0AGoBfACIAGQBZAKNA1MAKQNOVCkC2gRheGlz2ghr\nZWVwZGltcykC2gFL2gRtZWFuKQHaAWEpAdoMc3BhdGlhbF9kaW1zqQD6UC9ob21lL3BhdWwvYW5h\nY29uZGEzL2VudnMvR1NPQy9saWIvcHl0aG9uMy43L3NpdGUtcGFja2FnZXMvZWZmaWNpZW50bmV0\nL21vZGVsLnB52gg8bGFtYmRhPlcAAADzAAAAAA==\n", null, [[1, 2]]], "function_type": "lambda", "output_shape": null, "output_shape_type": "raw", "arguments": {}}, "inbound_nodes": [[["swish_28", 0, 0, {}]]]}, {"name": "conv2d_37", "class_name": "Conv2D", "config": {"name": "conv2d_37", "trainable": true, "filters": 24, "kernel_size": [1, 1], "strides": [1, 1], "padding": "same", "data_format": "channels_last", "dilation_rate": [1, 1], "activation": "linear", "use_bias": true, "kernel_initializer": {"class_name": "EfficientConv2DKernelInitializer", "config": {}}, "bias_initializer": {"class_name": "Zeros", "config": {}}, "kernel_regularizer": null, "bias_regularizer": null, "activity_regularizer": null, "kernel_constraint": null, "bias_constraint": null}, "inbound_nodes": [[["lambda_10", 0, 0, {}]]]}, {"name": "swish_29", "class_name": "Swish", "config": {"name": "swish_29", "trainable": true}, "inbound_nodes": [[["conv2d_37", 0, 0, {}]]]}, {"name": "conv2d_38", "class_name": "Conv2D", "config": {"name": "conv2d_38", "trainable": true, "filters": 576, "kernel_size": [1, 1], "strides": [1, 1], "padding": "same", "data_format": "channels_last", "dilation_rate": [1, 1], "activation": "linear", "use_bias": true, "kernel_initializer": {"class_name": "EfficientConv2DKernelInitializer", "config": {}}, "bias_initializer": {"class_name": "Zeros", "config": {}}, "kernel_regularizer": null, "bias_regularizer": null, "activity_regularizer": null, "kernel_constraint": null, "bias_constraint": null}, "inbound_nodes": [[["swish_29", 0, 0, {}]]]}, {"name": "activation_10", "class_name": "Activation", "config": {"name": "activation_10", "trainable": true, "activation": "sigmoid"}, "inbound_nodes": [[["conv2d_38", 0, 0, {}]]]}, {"name": "multiply_10", "class_name": "Multiply", "config": {"name": "multiply_10", "trainable": true}, "inbound_nodes": [[["activation_10", 0, 0, {}], ["swish_28", 0, 0, {}]]]}, {"name": "conv2d_39", "class_name": "Conv2D", "config": {"name": "conv2d_39", "trainable": true, "filters": 96, "kernel_size": [1, 1], "strides": [1, 1], "padding": "same", "data_format": "channels_last", "dilation_rate": [1, 1], "activation": "linear", "use_bias": false, "kernel_initializer": {"class_name": "EfficientConv2DKernelInitializer", "config": {}}, "bias_initializer": {"class_name": "Zeros", "config": {}}, "kernel_regularizer": null, "bias_regularizer": null, "activity_regularizer": null, "kernel_constraint": null, "bias_constraint": null}, "inbound_nodes": [[["multiply_10", 0, 0, {}]]]}, {"name": "batch_normalization_29", "class_name": "BatchNormalization", "config": {"name": "batch_normalization_29", "trainable": true, "axis": -1, "momentum": 0.99, "epsilon": 0.001, "center": true, "scale": true, "beta_initializer": {"class_name": "Zeros", "config": {}}, "gamma_initializer": {"class_name": "Ones", "config": {}}, "moving_mean_initializer": {"class_name": "Zeros", "config": {}}, "moving_variance_initializer": {"class_name": "Ones", "config": {}}, "beta_regularizer": null, "gamma_regularizer": null, "beta_constraint": null, "gamma_constraint": null}, "inbound_nodes": [[["conv2d_39", 0, 0, {}]]]}, {"name": "drop_connect_6", "class_name": "DropConnect", "config": {"name": "drop_connect_6", "trainable": true, "drop_connect_rate": 0.125}, "inbound_nodes": [[["batch_normalization_29", 0, 0, {}]]]}, {"name": "add_6", "class_name": "Add", "config": {"name": "add_6", "trainable": true}, "inbound_nodes": [[["drop_connect_6", 0, 0, {}], ["batch_normalization_26", 0, 0, {}]]]}, {"name": "conv2d_40", "class_name": "Conv2D", "config": {"name": "conv2d_40", "trainable": true, "filters": 576, "kernel_size": [1, 1], "strides": [1, 1], "padding": "same", "data_format": "channels_last", "dilation_rate": [1, 1], "activation": "linear", "use_bias": false, "kernel_initializer": {"class_name": "EfficientConv2DKernelInitializer", "config": {}}, "bias_initializer": {"class_name": "Zeros", "config": {}}, "kernel_regularizer": null, "bias_regularizer": null, "activity_regularizer": null, "kernel_constraint": null, "bias_constraint": null}, "inbound_nodes": [[["add_6", 0, 0, {}]]]}, {"name": "batch_normalization_30", "class_name": "BatchNormalization", "config": {"name": "batch_normalization_30", "trainable": true, "axis": -1, "momentum": 0.99, "epsilon": 0.001, "center": true, "scale": true, "beta_initializer": {"class_name": "Zeros", "config": {}}, "gamma_initializer": {"class_name": "Ones", "config": {}}, "moving_mean_initializer": {"class_name": "Zeros", "config": {}}, "moving_variance_initializer": {"class_name": "Ones", "config": {}}, "beta_regularizer": null, "gamma_regularizer": null, "beta_constraint": null, "gamma_constraint": null}, "inbound_nodes": [[["conv2d_40", 0, 0, {}]]]}, {"name": "swish_30", "class_name": "Swish", "config": {"name": "swish_30", "trainable": true}, "inbound_nodes": [[["batch_normalization_30", 0, 0, {}]]]}, {"name": "depthwise_conv2d_11", "class_name": "DepthwiseConv2D", "config": {"name": "depthwise_conv2d_11", "trainable": true, "kernel_size": [3, 3], "strides": [1, 1], "padding": "same", "data_format": "channels_last", "dilation_rate": [1, 1], "activation": "linear", "use_bias": false, "bias_initializer": {"class_name": "Zeros", "config": {}}, "bias_regularizer": null, "activity_regularizer": null, "bias_constraint": null, "depth_multiplier": 1, "depthwise_initializer": {"class_name": "EfficientConv2DKernelInitializer", "config": {}}, "depthwise_regularizer": null, "depthwise_constraint": null}, "inbound_nodes": [[["swish_30", 0, 0, {}]]]}, {"name": "batch_normalization_31", "class_name": "BatchNormalization", "config": {"name": "batch_normalization_31", "trainable": true, "axis": -1, "momentum": 0.99, "epsilon": 0.001, "center": true, "scale": true, "beta_initializer": {"class_name": "Zeros", "config": {}}, "gamma_initializer": {"class_name": "Ones", "config": {}}, "moving_mean_initializer": {"class_name": "Zeros", "config": {}}, "moving_variance_initializer": {"class_name": "Ones", "config": {}}, "beta_regularizer": null, "gamma_regularizer": null, "beta_constraint": null, "gamma_constraint": null}, "inbound_nodes": [[["depthwise_conv2d_11", 0, 0, {}]]]}, {"name": "swish_31", "class_name": "Swish", "config": {"name": "swish_31", "trainable": true}, "inbound_nodes": [[["batch_normalization_31", 0, 0, {}]]]}, {"name": "lambda_11", "class_name": "Lambda", "config": {"name": "lambda_11", "trainable": true, "function": ["4wEAAAAAAAAAAQAAAAUAAAATAAAAcxAAAAB0AGoBfACIAGQBZAKNA1MAKQNOVCkC2gRheGlz2ghr\nZWVwZGltcykC2gFL2gRtZWFuKQHaAWEpAdoMc3BhdGlhbF9kaW1zqQD6UC9ob21lL3BhdWwvYW5h\nY29uZGEzL2VudnMvR1NPQy9saWIvcHl0aG9uMy43L3NpdGUtcGFja2FnZXMvZWZmaWNpZW50bmV0\nL21vZGVsLnB52gg8bGFtYmRhPlcAAADzAAAAAA==\n", null, [[1, 2]]], "function_type": "lambda", "output_shape": null, "output_shape_type": "raw", "arguments": {}}, "inbound_nodes": [[["swish_31", 0, 0, {}]]]}, {"name": "conv2d_41", "class_name": "Conv2D", "config": {"name": "conv2d_41", "trainable": true, "filters": 24, "kernel_size": [1, 1], "strides": [1, 1], "padding": "same", "data_format": "channels_last", "dilation_rate": [1, 1], "activation": "linear", "use_bias": true, "kernel_initializer": {"class_name": "EfficientConv2DKernelInitializer", "config": {}}, "bias_initializer": {"class_name": "Zeros", "config": {}}, "kernel_regularizer": null, "bias_regularizer": null, "activity_regularizer": null, "kernel_constraint": null, "bias_constraint": null}, "inbound_nodes": [[["lambda_11", 0, 0, {}]]]}, {"name": "swish_32", "class_name": "Swish", "config": {"name": "swish_32", "trainable": true}, "inbound_nodes": [[["conv2d_41", 0, 0, {}]]]}, {"name": "conv2d_42", "class_name": "Conv2D", "config": {"name": "conv2d_42", "trainable": true, "filters": 576, "kernel_size": [1, 1], "strides": [1, 1], "padding": "same", "data_format": "channels_last", "dilation_rate": [1, 1], "activation": "linear", "use_bias": true, "kernel_initializer": {"class_name": "EfficientConv2DKernelInitializer", "config": {}}, "bias_initializer": {"class_name": "Zeros", "config": {}}, "kernel_regularizer": null, "bias_regularizer": null, "activity_regularizer": null, "kernel_constraint": null, "bias_constraint": null}, "inbound_nodes": [[["swish_32", 0, 0, {}]]]}, {"name": "activation_11", "class_name": "Activation", "config": {"name": "activation_11", "trainable": true, "activation": "sigmoid"}, "inbound_nodes": [[["conv2d_42", 0, 0, {}]]]}, {"name": "multiply_11", "class_name": "Multiply", "config": {"name": "multiply_11", "trainable": true}, "inbound_nodes": [[["activation_11", 0, 0, {}], ["swish_31", 0, 0, {}]]]}, {"name": "conv2d_43", "class_name": "Conv2D", "config": {"name": "conv2d_43", "trainable": true, "filters": 96, "kernel_size": [1, 1], "strides": [1, 1], "padding": "same", "data_format": "channels_last", "dilation_rate": [1, 1], "activation": "linear", "use_bias": false, "kernel_initializer": {"class_name": "EfficientConv2DKernelInitializer", "config": {}}, "bias_initializer": {"class_name": "Zeros", "config": {}}, "kernel_regularizer": null, "bias_regularizer": null, "activity_regularizer": null, "kernel_constraint": null, "bias_constraint": null}, "inbound_nodes": [[["multiply_11", 0, 0, {}]]]}, {"name": "batch_normalization_32", "class_name": "BatchNormalization", "config": {"name": "batch_normalization_32", "trainable": true, "axis": -1, "momentum": 0.99, "epsilon": 0.001, "center": true, "scale": true, "beta_initializer": {"class_name": "Zeros", "config": {}}, "gamma_initializer": {"class_name": "Ones", "config": {}}, "moving_mean_initializer": {"class_name": "Zeros", "config": {}}, "moving_variance_initializer": {"class_name": "Ones", "config": {}}, "beta_regularizer": null, "gamma_regularizer": null, "beta_constraint": null, "gamma_constraint": null}, "inbound_nodes": [[["conv2d_43", 0, 0, {}]]]}, {"name": "drop_connect_7", "class_name": "DropConnect", "config": {"name": "drop_connect_7", "trainable": true, "drop_connect_rate": 0.1375}, "inbound_nodes": [[["batch_normalization_32", 0, 0, {}]]]}, {"name": "add_7", "class_name": "Add", "config": {"name": "add_7", "trainable": true}, "inbound_nodes": [[["drop_connect_7", 0, 0, {}], ["add_6", 0, 0, {}]]]}, {"name": "conv2d_44", "class_name": "Conv2D", "config": {"name": "conv2d_44", "trainable": true, "filters": 576, "kernel_size": [1, 1], "strides": [1, 1], "padding": "same", "data_format": "channels_last", "dilation_rate": [1, 1], "activation": "linear", "use_bias": false, "kernel_initializer": {"class_name": "EfficientConv2DKernelInitializer", "config": {}}, "bias_initializer": {"class_name": "Zeros", "config": {}}, "kernel_regularizer": null, "bias_regularizer": null, "activity_regularizer": null, "kernel_constraint": null, "bias_constraint": null}, "inbound_nodes": [[["add_7", 0, 0, {}]]]}, {"name": "batch_normalization_33", "class_name": "BatchNormalization", "config": {"name": "batch_normalization_33", "trainable": true, "axis": -1, "momentum": 0.99, "epsilon": 0.001, "center": true, "scale": true, "beta_initializer": {"class_name": "Zeros", "config": {}}, "gamma_initializer": {"class_name": "Ones", "config": {}}, "moving_mean_initializer": {"class_name": "Zeros", "config": {}}, "moving_variance_initializer": {"class_name": "Ones", "config": {}}, "beta_regularizer": null, "gamma_regularizer": null, "beta_constraint": null, "gamma_constraint": null}, "inbound_nodes": [[["conv2d_44", 0, 0, {}]]]}, {"name": "swish_33", "class_name": "Swish", "config": {"name": "swish_33", "trainable": true}, "inbound_nodes": [[["batch_normalization_33", 0, 0, {}]]]}, {"name": "depthwise_conv2d_12", "class_name": "DepthwiseConv2D", "config": {"name": "depthwise_conv2d_12", "trainable": true, "kernel_size": [3, 3], "strides": [1, 1], "padding": "same", "data_format": "channels_last", "dilation_rate": [1, 1], "activation": "linear", "use_bias": false, "bias_initializer": {"class_name": "Zeros", "config": {}}, "bias_regularizer": null, "activity_regularizer": null, "bias_constraint": null, "depth_multiplier": 1, "depthwise_initializer": {"class_name": "EfficientConv2DKernelInitializer", "config": {}}, "depthwise_regularizer": null, "depthwise_constraint": null}, "inbound_nodes": [[["swish_33", 0, 0, {}]]]}, {"name": "batch_normalization_34", "class_name": "BatchNormalization", "config": {"name": "batch_normalization_34", "trainable": true, "axis": -1, "momentum": 0.99, "epsilon": 0.001, "center": true, "scale": true, "beta_initializer": {"class_name": "Zeros", "config": {}}, "gamma_initializer": {"class_name": "Ones", "config": {}}, "moving_mean_initializer": {"class_name": "Zeros", "config": {}}, "moving_variance_initializer": {"class_name": "Ones", "config": {}}, "beta_regularizer": null, "gamma_regularizer": null, "beta_constraint": null, "gamma_constraint": null}, "inbound_nodes": [[["depthwise_conv2d_12", 0, 0, {}]]]}, {"name": "swish_34", "class_name": "Swish", "config": {"name": "swish_34", "trainable": true}, "inbound_nodes": [[["batch_normalization_34", 0, 0, {}]]]}, {"name": "lambda_12", "class_name": "Lambda", "config": {"name": "lambda_12", "trainable": true, "function": ["4wEAAAAAAAAAAQAAAAUAAAATAAAAcxAAAAB0AGoBfACIAGQBZAKNA1MAKQNOVCkC2gRheGlz2ghr\nZWVwZGltcykC2gFL2gRtZWFuKQHaAWEpAdoMc3BhdGlhbF9kaW1zqQD6UC9ob21lL3BhdWwvYW5h\nY29uZGEzL2VudnMvR1NPQy9saWIvcHl0aG9uMy43L3NpdGUtcGFja2FnZXMvZWZmaWNpZW50bmV0\nL21vZGVsLnB52gg8bGFtYmRhPlcAAADzAAAAAA==\n", null, [[1, 2]]], "function_type": "lambda", "output_shape": null, "output_shape_type": "raw", "arguments": {}}, "inbound_nodes": [[["swish_34", 0, 0, {}]]]}, {"name": "conv2d_45", "class_name": "Conv2D", "config": {"name": "conv2d_45", "trainable": true, "filters": 24, "kernel_size": [1, 1], "strides": [1, 1], "padding": "same", "data_format": "channels_last", "dilation_rate": [1, 1], "activation": "linear", "use_bias": true, "kernel_initializer": {"class_name": "EfficientConv2DKernelInitializer", "config": {}}, "bias_initializer": {"class_name": "Zeros", "config": {}}, "kernel_regularizer": null, "bias_regularizer": null, "activity_regularizer": null, "kernel_constraint": null, "bias_constraint": null}, "inbound_nodes": [[["lambda_12", 0, 0, {}]]]}, {"name": "swish_35", "class_name": "Swish", "config": {"name": "swish_35", "trainable": true}, "inbound_nodes": [[["conv2d_45", 0, 0, {}]]]}, {"name": "conv2d_46", "class_name": "Conv2D", "config": {"name": "conv2d_46", "trainable": true, "filters": 576, "kernel_size": [1, 1], "strides": [1, 1], "padding": "same", "data_format": "channels_last", "dilation_rate": [1, 1], "activation": "linear", "use_bias": true, "kernel_initializer": {"class_name": "EfficientConv2DKernelInitializer", "config": {}}, "bias_initializer": {"class_name": "Zeros", "config": {}}, "kernel_regularizer": null, "bias_regularizer": null, "activity_regularizer": null, "kernel_constraint": null, "bias_constraint": null}, "inbound_nodes": [[["swish_35", 0, 0, {}]]]}, {"name": "activation_12", "class_name": "Activation", "config": {"name": "activation_12", "trainable": true, "activation": "sigmoid"}, "inbound_nodes": [[["conv2d_46", 0, 0, {}]]]}, {"name": "multiply_12", "class_name": "Multiply", "config": {"name": "multiply_12", "trainable": true}, "inbound_nodes": [[["activation_12", 0, 0, {}], ["swish_34", 0, 0, {}]]]}, {"name": "conv2d_47", "class_name": "Conv2D", "config": {"name": "conv2d_47", "trainable": true, "filters": 96, "kernel_size": [1, 1], "strides": [1, 1], "padding": "same", "data_format": "channels_last", "dilation_rate": [1, 1], "activation": "linear", "use_bias": false, "kernel_initializer": {"class_name": "EfficientConv2DKernelInitializer", "config": {}}, "bias_initializer": {"class_name": "Zeros", "config": {}}, "kernel_regularizer": null, "bias_regularizer": null, "activity_regularizer": null, "kernel_constraint": null, "bias_constraint": null}, "inbound_nodes": [[["multiply_12", 0, 0, {}]]]}, {"name": "batch_normalization_35", "class_name": "BatchNormalization", "config": {"name": "batch_normalization_35", "trainable": true, "axis": -1, "momentum": 0.99, "epsilon": 0.001, "center": true, "scale": true, "beta_initializer": {"class_name": "Zeros", "config": {}}, "gamma_initializer": {"class_name": "Ones", "config": {}}, "moving_mean_initializer": {"class_name": "Zeros", "config": {}}, "moving_variance_initializer": {"class_name": "Ones", "config": {}}, "beta_regularizer": null, "gamma_regularizer": null, "beta_constraint": null, "gamma_constraint": null}, "inbound_nodes": [[["conv2d_47", 0, 0, {}]]]}, {"name": "drop_connect_8", "class_name": "DropConnect", "config": {"name": "drop_connect_8", "trainable": true, "drop_connect_rate": 0.15000000000000002}, "inbound_nodes": [[["batch_normalization_35", 0, 0, {}]]]}, {"name": "add_8", "class_name": "Add", "config": {"name": "add_8", "trainable": true}, "inbound_nodes": [[["drop_connect_8", 0, 0, {}], ["add_7", 0, 0, {}]]]}, {"name": "conv2d_48", "class_name": "Conv2D", "config": {"name": "conv2d_48", "trainable": true, "filters": 576, "kernel_size": [1, 1], "strides": [1, 1], "padding": "same", "data_format": "channels_last", "dilation_rate": [1, 1], "activation": "linear", "use_bias": false, "kernel_initializer": {"class_name": "EfficientConv2DKernelInitializer", "config": {}}, "bias_initializer": {"class_name": "Zeros", "config": {}}, "kernel_regularizer": null, "bias_regularizer": null, "activity_regularizer": null, "kernel_constraint": null, "bias_constraint": null}, "inbound_nodes": [[["add_8", 0, 0, {}]]]}, {"name": "batch_normalization_36", "class_name": "BatchNormalization", "config": {"name": "batch_normalization_36", "trainable": true, "axis": -1, "momentum": 0.99, "epsilon": 0.001, "center": true, "scale": true, "beta_initializer": {"class_name": "Zeros", "config": {}}, "gamma_initializer": {"class_name": "Ones", "config": {}}, "moving_mean_initializer": {"class_name": "Zeros", "config": {}}, "moving_variance_initializer": {"class_name": "Ones", "config": {}}, "beta_regularizer": null, "gamma_regularizer": null, "beta_constraint": null, "gamma_constraint": null}, "inbound_nodes": [[["conv2d_48", 0, 0, {}]]]}, {"name": "swish_36", "class_name": "Swish", "config": {"name": "swish_36", "trainable": true}, "inbound_nodes": [[["batch_normalization_36", 0, 0, {}]]]}, {"name": "depthwise_conv2d_13", "class_name": "DepthwiseConv2D", "config": {"name": "depthwise_conv2d_13", "trainable": true, "kernel_size": [3, 3], "strides": [1, 1], "padding": "same", "data_format": "channels_last", "dilation_rate": [1, 1], "activation": "linear", "use_bias": false, "bias_initializer": {"class_name": "Zeros", "config": {}}, "bias_regularizer": null, "activity_regularizer": null, "bias_constraint": null, "depth_multiplier": 1, "depthwise_initializer": {"class_name": "EfficientConv2DKernelInitializer", "config": {}}, "depthwise_regularizer": null, "depthwise_constraint": null}, "inbound_nodes": [[["swish_36", 0, 0, {}]]]}, {"name": "batch_normalization_37", "class_name": "BatchNormalization", "config": {"name": "batch_normalization_37", "trainable": true, "axis": -1, "momentum": 0.99, "epsilon": 0.001, "center": true, "scale": true, "beta_initializer": {"class_name": "Zeros", "config": {}}, "gamma_initializer": {"class_name": "Ones", "config": {}}, "moving_mean_initializer": {"class_name": "Zeros", "config": {}}, "moving_variance_initializer": {"class_name": "Ones", "config": {}}, "beta_regularizer": null, "gamma_regularizer": null, "beta_constraint": null, "gamma_constraint": null}, "inbound_nodes": [[["depthwise_conv2d_13", 0, 0, {}]]]}, {"name": "swish_37", "class_name": "Swish", "config": {"name": "swish_37", "trainable": true}, "inbound_nodes": [[["batch_normalization_37", 0, 0, {}]]]}, {"name": "lambda_13", "class_name": "Lambda", "config": {"name": "lambda_13", "trainable": true, "function": ["4wEAAAAAAAAAAQAAAAUAAAATAAAAcxAAAAB0AGoBfACIAGQBZAKNA1MAKQNOVCkC2gRheGlz2ghr\nZWVwZGltcykC2gFL2gRtZWFuKQHaAWEpAdoMc3BhdGlhbF9kaW1zqQD6UC9ob21lL3BhdWwvYW5h\nY29uZGEzL2VudnMvR1NPQy9saWIvcHl0aG9uMy43L3NpdGUtcGFja2FnZXMvZWZmaWNpZW50bmV0\nL21vZGVsLnB52gg8bGFtYmRhPlcAAADzAAAAAA==\n", null, [[1, 2]]], "function_type": "lambda", "output_shape": null, "output_shape_type": "raw", "arguments": {}}, "inbound_nodes": [[["swish_37", 0, 0, {}]]]}, {"name": "conv2d_49", "class_name": "Conv2D", "config": {"name": "conv2d_49", "trainable": true, "filters": 24, "kernel_size": [1, 1], "strides": [1, 1], "padding": "same", "data_format": "channels_last", "dilation_rate": [1, 1], "activation": "linear", "use_bias": true, "kernel_initializer": {"class_name": "EfficientConv2DKernelInitializer", "config": {}}, "bias_initializer": {"class_name": "Zeros", "config": {}}, "kernel_regularizer": null, "bias_regularizer": null, "activity_regularizer": null, "kernel_constraint": null, "bias_constraint": null}, "inbound_nodes": [[["lambda_13", 0, 0, {}]]]}, {"name": "swish_38", "class_name": "Swish", "config": {"name": "swish_38", "trainable": true}, "inbound_nodes": [[["conv2d_49", 0, 0, {}]]]}, {"name": "conv2d_50", "class_name": "Conv2D", "config": {"name": "conv2d_50", "trainable": true, "filters": 576, "kernel_size": [1, 1], "strides": [1, 1], "padding": "same", "data_format": "channels_last", "dilation_rate": [1, 1], "activation": "linear", "use_bias": true, "kernel_initializer": {"class_name": "EfficientConv2DKernelInitializer", "config": {}}, "bias_initializer": {"class_name": "Zeros", "config": {}}, "kernel_regularizer": null, "bias_regularizer": null, "activity_regularizer": null, "kernel_constraint": null, "bias_constraint": null}, "inbound_nodes": [[["swish_38", 0, 0, {}]]]}, {"name": "activation_13", "class_name": "Activation", "config": {"name": "activation_13", "trainable": true, "activation": "sigmoid"}, "inbound_nodes": [[["conv2d_50", 0, 0, {}]]]}, {"name": "multiply_13", "class_name": "Multiply", "config": {"name": "multiply_13", "trainable": true}, "inbound_nodes": [[["activation_13", 0, 0, {}], ["swish_37", 0, 0, {}]]]}, {"name": "conv2d_51", "class_name": "Conv2D", "config": {"name": "conv2d_51", "trainable": true, "filters": 96, "kernel_size": [1, 1], "strides": [1, 1], "padding": "same", "data_format": "channels_last", "dilation_rate": [1, 1], "activation": "linear", "use_bias": false, "kernel_initializer": {"class_name": "EfficientConv2DKernelInitializer", "config": {}}, "bias_initializer": {"class_name": "Zeros", "config": {}}, "kernel_regularizer": null, "bias_regularizer": null, "activity_regularizer": null, "kernel_constraint": null, "bias_constraint": null}, "inbound_nodes": [[["multiply_13", 0, 0, {}]]]}, {"name": "batch_normalization_38", "class_name": "BatchNormalization", "config": {"name": "batch_normalization_38", "trainable": true, "axis": -1, "momentum": 0.99, "epsilon": 0.001, "center": true, "scale": true, "beta_initializer": {"class_name": "Zeros", "config": {}}, "gamma_initializer": {"class_name": "Ones", "config": {}}, "moving_mean_initializer": {"class_name": "Zeros", "config": {}}, "moving_variance_initializer": {"class_name": "Ones", "config": {}}, "beta_regularizer": null, "gamma_regularizer": null, "beta_constraint": null, "gamma_constraint": null}, "inbound_nodes": [[["conv2d_51", 0, 0, {}]]]}, {"name": "drop_connect_9", "class_name": "DropConnect", "config": {"name": "drop_connect_9", "trainable": true, "drop_connect_rate": 0.1625}, "inbound_nodes": [[["batch_normalization_38", 0, 0, {}]]]}, {"name": "add_9", "class_name": "Add", "config": {"name": "add_9", "trainable": true}, "inbound_nodes": [[["drop_connect_9", 0, 0, {}], ["add_8", 0, 0, {}]]]}, {"name": "conv2d_52", "class_name": "Conv2D", "config": {"name": "conv2d_52", "trainable": true, "filters": 576, "kernel_size": [1, 1], "strides": [1, 1], "padding": "same", "data_format": "channels_last", "dilation_rate": [1, 1], "activation": "linear", "use_bias": false, "kernel_initializer": {"class_name": "EfficientConv2DKernelInitializer", "config": {}}, "bias_initializer": {"class_name": "Zeros", "config": {}}, "kernel_regularizer": null, "bias_regularizer": null, "activity_regularizer": null, "kernel_constraint": null, "bias_constraint": null}, "inbound_nodes": [[["add_9", 0, 0, {}]]]}, {"name": "batch_normalization_39", "class_name": "BatchNormalization", "config": {"name": "batch_normalization_39", "trainable": true, "axis": -1, "momentum": 0.99, "epsilon": 0.001, "center": true, "scale": true, "beta_initializer": {"class_name": "Zeros", "config": {}}, "gamma_initializer": {"class_name": "Ones", "config": {}}, "moving_mean_initializer": {"class_name": "Zeros", "config": {}}, "moving_variance_initializer": {"class_name": "Ones", "config": {}}, "beta_regularizer": null, "gamma_regularizer": null, "beta_constraint": null, "gamma_constraint": null}, "inbound_nodes": [[["conv2d_52", 0, 0, {}]]]}, {"name": "swish_39", "class_name": "Swish", "config": {"name": "swish_39", "trainable": true}, "inbound_nodes": [[["batch_normalization_39", 0, 0, {}]]]}, {"name": "depthwise_conv2d_14", "class_name": "DepthwiseConv2D", "config": {"name": "depthwise_conv2d_14", "trainable": true, "kernel_size": [5, 5], "strides": [1, 1], "padding": "same", "data_format": "channels_last", "dilation_rate": [1, 1], "activation": "linear", "use_bias": false, "bias_initializer": {"class_name": "Zeros", "config": {}}, "bias_regularizer": null, "activity_regularizer": null, "bias_constraint": null, "depth_multiplier": 1, "depthwise_initializer": {"class_name": "EfficientConv2DKernelInitializer", "config": {}}, "depthwise_regularizer": null, "depthwise_constraint": null}, "inbound_nodes": [[["swish_39", 0, 0, {}]]]}, {"name": "batch_normalization_40", "class_name": "BatchNormalization", "config": {"name": "batch_normalization_40", "trainable": true, "axis": -1, "momentum": 0.99, "epsilon": 0.001, "center": true, "scale": true, "beta_initializer": {"class_name": "Zeros", "config": {}}, "gamma_initializer": {"class_name": "Ones", "config": {}}, "moving_mean_initializer": {"class_name": "Zeros", "config": {}}, "moving_variance_initializer": {"class_name": "Ones", "config": {}}, "beta_regularizer": null, "gamma_regularizer": null, "beta_constraint": null, "gamma_constraint": null}, "inbound_nodes": [[["depthwise_conv2d_14", 0, 0, {}]]]}, {"name": "swish_40", "class_name": "Swish", "config": {"name": "swish_40", "trainable": true}, "inbound_nodes": [[["batch_normalization_40", 0, 0, {}]]]}, {"name": "lambda_14", "class_name": "Lambda", "config": {"name": "lambda_14", "trainable": true, "function": ["4wEAAAAAAAAAAQAAAAUAAAATAAAAcxAAAAB0AGoBfACIAGQBZAKNA1MAKQNOVCkC2gRheGlz2ghr\nZWVwZGltcykC2gFL2gRtZWFuKQHaAWEpAdoMc3BhdGlhbF9kaW1zqQD6UC9ob21lL3BhdWwvYW5h\nY29uZGEzL2VudnMvR1NPQy9saWIvcHl0aG9uMy43L3NpdGUtcGFja2FnZXMvZWZmaWNpZW50bmV0\nL21vZGVsLnB52gg8bGFtYmRhPlcAAADzAAAAAA==\n", null, [[1, 2]]], "function_type": "lambda", "output_shape": null, "output_shape_type": "raw", "arguments": {}}, "inbound_nodes": [[["swish_40", 0, 0, {}]]]}, {"name": "conv2d_53", "class_name": "Conv2D", "config": {"name": "conv2d_53", "trainable": true, "filters": 24, "kernel_size": [1, 1], "strides": [1, 1], "padding": "same", "data_format": "channels_last", "dilation_rate": [1, 1], "activation": "linear", "use_bias": true, "kernel_initializer": {"class_name": "EfficientConv2DKernelInitializer", "config": {}}, "bias_initializer": {"class_name": "Zeros", "config": {}}, "kernel_regularizer": null, "bias_regularizer": null, "activity_regularizer": null, "kernel_constraint": null, "bias_constraint": null}, "inbound_nodes": [[["lambda_14", 0, 0, {}]]]}, {"name": "swish_41", "class_name": "Swish", "config": {"name": "swish_41", "trainable": true}, "inbound_nodes": [[["conv2d_53", 0, 0, {}]]]}, {"name": "conv2d_54", "class_name": "Conv2D", "config": {"name": "conv2d_54", "trainable": true, "filters": 576, "kernel_size": [1, 1], "strides": [1, 1], "padding": "same", "data_format": "channels_last", "dilation_rate": [1, 1], "activation": "linear", "use_bias": true, "kernel_initializer": {"class_name": "EfficientConv2DKernelInitializer", "config": {}}, "bias_initializer": {"class_name": "Zeros", "config": {}}, "kernel_regularizer": null, "bias_regularizer": null, "activity_regularizer": null, "kernel_constraint": null, "bias_constraint": null}, "inbound_nodes": [[["swish_41", 0, 0, {}]]]}, {"name": "activation_14", "class_name": "Activation", "config": {"name": "activation_14", "trainable": true, "activation": "sigmoid"}, "inbound_nodes": [[["conv2d_54", 0, 0, {}]]]}, {"name": "multiply_14", "class_name": "Multiply", "config": {"name": "multiply_14", "trainable": true}, "inbound_nodes": [[["activation_14", 0, 0, {}], ["swish_40", 0, 0, {}]]]}, {"name": "conv2d_55", "class_name": "Conv2D", "config": {"name": "conv2d_55", "trainable": true, "filters": 136, "kernel_size": [1, 1], "strides": [1, 1], "padding": "same", "data_format": "channels_last", "dilation_rate": [1, 1], "activation": "linear", "use_bias": false, "kernel_initializer": {"class_name": "EfficientConv2DKernelInitializer", "config": {}}, "bias_initializer": {"class_name": "Zeros", "config": {}}, "kernel_regularizer": null, "bias_regularizer": null, "activity_regularizer": null, "kernel_constraint": null, "bias_constraint": null}, "inbound_nodes": [[["multiply_14", 0, 0, {}]]]}, {"name": "batch_normalization_41", "class_name": "BatchNormalization", "config": {"name": "batch_normalization_41", "trainable": true, "axis": -1, "momentum": 0.99, "epsilon": 0.001, "center": true, "scale": true, "beta_initializer": {"class_name": "Zeros", "config": {}}, "gamma_initializer": {"class_name": "Ones", "config": {}}, "moving_mean_initializer": {"class_name": "Zeros", "config": {}}, "moving_variance_initializer": {"class_name": "Ones", "config": {}}, "beta_regularizer": null, "gamma_regularizer": null, "beta_constraint": null, "gamma_constraint": null}, "inbound_nodes": [[["conv2d_55", 0, 0, {}]]]}, {"name": "conv2d_56", "class_name": "Conv2D", "config": {"name": "conv2d_56", "trainable": true, "filters": 816, "kernel_size": [1, 1], "strides": [1, 1], "padding": "same", "data_format": "channels_last", "dilation_rate": [1, 1], "activation": "linear", "use_bias": false, "kernel_initializer": {"class_name": "EfficientConv2DKernelInitializer", "config": {}}, "bias_initializer": {"class_name": "Zeros", "config": {}}, "kernel_regularizer": null, "bias_regularizer": null, "activity_regularizer": null, "kernel_constraint": null, "bias_constraint": null}, "inbound_nodes": [[["batch_normalization_41", 0, 0, {}]]]}, {"name": "batch_normalization_42", "class_name": "BatchNormalization", "config": {"name": "batch_normalization_42", "trainable": true, "axis": -1, "momentum": 0.99, "epsilon": 0.001, "center": true, "scale": true, "beta_initializer": {"class_name": "Zeros", "config": {}}, "gamma_initializer": {"class_name": "Ones", "config": {}}, "moving_mean_initializer": {"class_name": "Zeros", "config": {}}, "moving_variance_initializer": {"class_name": "Ones", "config": {}}, "beta_regularizer": null, "gamma_regularizer": null, "beta_constraint": null, "gamma_constraint": null}, "inbound_nodes": [[["conv2d_56", 0, 0, {}]]]}, {"name": "swish_42", "class_name": "Swish", "config": {"name": "swish_42", "trainable": true}, "inbound_nodes": [[["batch_normalization_42", 0, 0, {}]]]}, {"name": "depthwise_conv2d_15", "class_name": "DepthwiseConv2D", "config": {"name": "depthwise_conv2d_15", "trainable": true, "kernel_size": [5, 5], "strides": [1, 1], "padding": "same", "data_format": "channels_last", "dilation_rate": [1, 1], "activation": "linear", "use_bias": false, "bias_initializer": {"class_name": "Zeros", "config": {}}, "bias_regularizer": null, "activity_regularizer": null, "bias_constraint": null, "depth_multiplier": 1, "depthwise_initializer": {"class_name": "EfficientConv2DKernelInitializer", "config": {}}, "depthwise_regularizer": null, "depthwise_constraint": null}, "inbound_nodes": [[["swish_42", 0, 0, {}]]]}, {"name": "batch_normalization_43", "class_name": "BatchNormalization", "config": {"name": "batch_normalization_43", "trainable": true, "axis": -1, "momentum": 0.99, "epsilon": 0.001, "center": true, "scale": true, "beta_initializer": {"class_name": "Zeros", "config": {}}, "gamma_initializer": {"class_name": "Ones", "config": {}}, "moving_mean_initializer": {"class_name": "Zeros", "config": {}}, "moving_variance_initializer": {"class_name": "Ones", "config": {}}, "beta_regularizer": null, "gamma_regularizer": null, "beta_constraint": null, "gamma_constraint": null}, "inbound_nodes": [[["depthwise_conv2d_15", 0, 0, {}]]]}, {"name": "swish_43", "class_name": "Swish", "config": {"name": "swish_43", "trainable": true}, "inbound_nodes": [[["batch_normalization_43", 0, 0, {}]]]}, {"name": "lambda_15", "class_name": "Lambda", "config": {"name": "lambda_15", "trainable": true, "function": ["4wEAAAAAAAAAAQAAAAUAAAATAAAAcxAAAAB0AGoBfACIAGQBZAKNA1MAKQNOVCkC2gRheGlz2ghr\nZWVwZGltcykC2gFL2gRtZWFuKQHaAWEpAdoMc3BhdGlhbF9kaW1zqQD6UC9ob21lL3BhdWwvYW5h\nY29uZGEzL2VudnMvR1NPQy9saWIvcHl0aG9uMy43L3NpdGUtcGFja2FnZXMvZWZmaWNpZW50bmV0\nL21vZGVsLnB52gg8bGFtYmRhPlcAAADzAAAAAA==\n", null, [[1, 2]]], "function_type": "lambda", "output_shape": null, "output_shape_type": "raw", "arguments": {}}, "inbound_nodes": [[["swish_43", 0, 0, {}]]]}, {"name": "conv2d_57", "class_name": "Conv2D", "config": {"name": "conv2d_57", "trainable": true, "filters": 34, "kernel_size": [1, 1], "strides": [1, 1], "padding": "same", "data_format": "channels_last", "dilation_rate": [1, 1], "activation": "linear", "use_bias": true, "kernel_initializer": {"class_name": "EfficientConv2DKernelInitializer", "config": {}}, "bias_initializer": {"class_name": "Zeros", "config": {}}, "kernel_regularizer": null, "bias_regularizer": null, "activity_regularizer": null, "kernel_constraint": null, "bias_constraint": null}, "inbound_nodes": [[["lambda_15", 0, 0, {}]]]}, {"name": "swish_44", "class_name": "Swish", "config": {"name": "swish_44", "trainable": true}, "inbound_nodes": [[["conv2d_57", 0, 0, {}]]]}, {"name": "conv2d_58", "class_name": "Conv2D", "config": {"name": "conv2d_58", "trainable": true, "filters": 816, "kernel_size": [1, 1], "strides": [1, 1], "padding": "same", "data_format": "channels_last", "dilation_rate": [1, 1], "activation": "linear", "use_bias": true, "kernel_initializer": {"class_name": "EfficientConv2DKernelInitializer", "config": {}}, "bias_initializer": {"class_name": "Zeros", "config": {}}, "kernel_regularizer": null, "bias_regularizer": null, "activity_regularizer": null, "kernel_constraint": null, "bias_constraint": null}, "inbound_nodes": [[["swish_44", 0, 0, {}]]]}, {"name": "activation_15", "class_name": "Activation", "config": {"name": "activation_15", "trainable": true, "activation": "sigmoid"}, "inbound_nodes": [[["conv2d_58", 0, 0, {}]]]}, {"name": "multiply_15", "class_name": "Multiply", "config": {"name": "multiply_15", "trainable": true}, "inbound_nodes": [[["activation_15", 0, 0, {}], ["swish_43", 0, 0, {}]]]}, {"name": "conv2d_59", "class_name": "Conv2D", "config": {"name": "conv2d_59", "trainable": true, "filters": 136, "kernel_size": [1, 1], "strides": [1, 1], "padding": "same", "data_format": "channels_last", "dilation_rate": [1, 1], "activation": "linear", "use_bias": false, "kernel_initializer": {"class_name": "EfficientConv2DKernelInitializer", "config": {}}, "bias_initializer": {"class_name": "Zeros", "config": {}}, "kernel_regularizer": null, "bias_regularizer": null, "activity_regularizer": null, "kernel_constraint": null, "bias_constraint": null}, "inbound_nodes": [[["multiply_15", 0, 0, {}]]]}, {"name": "batch_normalization_44", "class_name": "BatchNormalization", "config": {"name": "batch_normalization_44", "trainable": true, "axis": -1, "momentum": 0.99, "epsilon": 0.001, "center": true, "scale": true, "beta_initializer": {"class_name": "Zeros", "config": {}}, "gamma_initializer": {"class_name": "Ones", "config": {}}, "moving_mean_initializer": {"class_name": "Zeros", "config": {}}, "moving_variance_initializer": {"class_name": "Ones", "config": {}}, "beta_regularizer": null, "gamma_regularizer": null, "beta_constraint": null, "gamma_constraint": null}, "inbound_nodes": [[["conv2d_59", 0, 0, {}]]]}, {"name": "drop_connect_10", "class_name": "DropConnect", "config": {"name": "drop_connect_10", "trainable": true, "drop_connect_rate": 0.1875}, "inbound_nodes": [[["batch_normalization_44", 0, 0, {}]]]}, {"name": "add_10", "class_name": "Add", "config": {"name": "add_10", "trainable": true}, "inbound_nodes": [[["drop_connect_10", 0, 0, {}], ["batch_normalization_41", 0, 0, {}]]]}, {"name": "conv2d_60", "class_name": "Conv2D", "config": {"name": "conv2d_60", "trainable": true, "filters": 816, "kernel_size": [1, 1], "strides": [1, 1], "padding": "same", "data_format": "channels_last", "dilation_rate": [1, 1], "activation": "linear", "use_bias": false, "kernel_initializer": {"class_name": "EfficientConv2DKernelInitializer", "config": {}}, "bias_initializer": {"class_name": "Zeros", "config": {}}, "kernel_regularizer": null, "bias_regularizer": null, "activity_regularizer": null, "kernel_constraint": null, "bias_constraint": null}, "inbound_nodes": [[["add_10", 0, 0, {}]]]}, {"name": "batch_normalization_45", "class_name": "BatchNormalization", "config": {"name": "batch_normalization_45", "trainable": true, "axis": -1, "momentum": 0.99, "epsilon": 0.001, "center": true, "scale": true, "beta_initializer": {"class_name": "Zeros", "config": {}}, "gamma_initializer": {"class_name": "Ones", "config": {}}, "moving_mean_initializer": {"class_name": "Zeros", "config": {}}, "moving_variance_initializer": {"class_name": "Ones", "config": {}}, "beta_regularizer": null, "gamma_regularizer": null, "beta_constraint": null, "gamma_constraint": null}, "inbound_nodes": [[["conv2d_60", 0, 0, {}]]]}, {"name": "swish_45", "class_name": "Swish", "config": {"name": "swish_45", "trainable": true}, "inbound_nodes": [[["batch_normalization_45", 0, 0, {}]]]}, {"name": "depthwise_conv2d_16", "class_name": "DepthwiseConv2D", "config": {"name": "depthwise_conv2d_16", "trainable": true, "kernel_size": [5, 5], "strides": [1, 1], "padding": "same", "data_format": "channels_last", "dilation_rate": [1, 1], "activation": "linear", "use_bias": false, "bias_initializer": {"class_name": "Zeros", "config": {}}, "bias_regularizer": null, "activity_regularizer": null, "bias_constraint": null, "depth_multiplier": 1, "depthwise_initializer": {"class_name": "EfficientConv2DKernelInitializer", "config": {}}, "depthwise_regularizer": null, "depthwise_constraint": null}, "inbound_nodes": [[["swish_45", 0, 0, {}]]]}, {"name": "batch_normalization_46", "class_name": "BatchNormalization", "config": {"name": "batch_normalization_46", "trainable": true, "axis": -1, "momentum": 0.99, "epsilon": 0.001, "center": true, "scale": true, "beta_initializer": {"class_name": "Zeros", "config": {}}, "gamma_initializer": {"class_name": "Ones", "config": {}}, "moving_mean_initializer": {"class_name": "Zeros", "config": {}}, "moving_variance_initializer": {"class_name": "Ones", "config": {}}, "beta_regularizer": null, "gamma_regularizer": null, "beta_constraint": null, "gamma_constraint": null}, "inbound_nodes": [[["depthwise_conv2d_16", 0, 0, {}]]]}, {"name": "swish_46", "class_name": "Swish", "config": {"name": "swish_46", "trainable": true}, "inbound_nodes": [[["batch_normalization_46", 0, 0, {}]]]}, {"name": "lambda_16", "class_name": "Lambda", "config": {"name": "lambda_16", "trainable": true, "function": ["4wEAAAAAAAAAAQAAAAUAAAATAAAAcxAAAAB0AGoBfACIAGQBZAKNA1MAKQNOVCkC2gRheGlz2ghr\nZWVwZGltcykC2gFL2gRtZWFuKQHaAWEpAdoMc3BhdGlhbF9kaW1zqQD6UC9ob21lL3BhdWwvYW5h\nY29uZGEzL2VudnMvR1NPQy9saWIvcHl0aG9uMy43L3NpdGUtcGFja2FnZXMvZWZmaWNpZW50bmV0\nL21vZGVsLnB52gg8bGFtYmRhPlcAAADzAAAAAA==\n", null, [[1, 2]]], "function_type": "lambda", "output_shape": null, "output_shape_type": "raw", "arguments": {}}, "inbound_nodes": [[["swish_46", 0, 0, {}]]]}, {"name": "conv2d_61", "class_name": "Conv2D", "config": {"name": "conv2d_61", "trainable": true, "filters": 34, "kernel_size": [1, 1], "strides": [1, 1], "padding": "same", "data_format": "channels_last", "dilation_rate": [1, 1], "activation": "linear", "use_bias": true, "kernel_initializer": {"class_name": "EfficientConv2DKernelInitializer", "config": {}}, "bias_initializer": {"class_name": "Zeros", "config": {}}, "kernel_regularizer": null, "bias_regularizer": null, "activity_regularizer": null, "kernel_constraint": null, "bias_constraint": null}, "inbound_nodes": [[["lambda_16", 0, 0, {}]]]}, {"name": "swish_47", "class_name": "Swish", "config": {"name": "swish_47", "trainable": true}, "inbound_nodes": [[["conv2d_61", 0, 0, {}]]]}, {"name": "conv2d_62", "class_name": "Conv2D", "config": {"name": "conv2d_62", "trainable": true, "filters": 816, "kernel_size": [1, 1], "strides": [1, 1], "padding": "same", "data_format": "channels_last", "dilation_rate": [1, 1], "activation": "linear", "use_bias": true, "kernel_initializer": {"class_name": "EfficientConv2DKernelInitializer", "config": {}}, "bias_initializer": {"class_name": "Zeros", "config": {}}, "kernel_regularizer": null, "bias_regularizer": null, "activity_regularizer": null, "kernel_constraint": null, "bias_constraint": null}, "inbound_nodes": [[["swish_47", 0, 0, {}]]]}, {"name": "activation_16", "class_name": "Activation", "config": {"name": "activation_16", "trainable": true, "activation": "sigmoid"}, "inbound_nodes": [[["conv2d_62", 0, 0, {}]]]}, {"name": "multiply_16", "class_name": "Multiply", "config": {"name": "multiply_16", "trainable": true}, "inbound_nodes": [[["activation_16", 0, 0, {}], ["swish_46", 0, 0, {}]]]}, {"name": "conv2d_63", "class_name": "Conv2D", "config": {"name": "conv2d_63", "trainable": true, "filters": 136, "kernel_size": [1, 1], "strides": [1, 1], "padding": "same", "data_format": "channels_last", "dilation_rate": [1, 1], "activation": "linear", "use_bias": false, "kernel_initializer": {"class_name": "EfficientConv2DKernelInitializer", "config": {}}, "bias_initializer": {"class_name": "Zeros", "config": {}}, "kernel_regularizer": null, "bias_regularizer": null, "activity_regularizer": null, "kernel_constraint": null, "bias_constraint": null}, "inbound_nodes": [[["multiply_16", 0, 0, {}]]]}, {"name": "batch_normalization_47", "class_name": "BatchNormalization", "config": {"name": "batch_normalization_47", "trainable": true, "axis": -1, "momentum": 0.99, "epsilon": 0.001, "center": true, "scale": true, "beta_initializer": {"class_name": "Zeros", "config": {}}, "gamma_initializer": {"class_name": "Ones", "config": {}}, "moving_mean_initializer": {"class_name": "Zeros", "config": {}}, "moving_variance_initializer": {"class_name": "Ones", "config": {}}, "beta_regularizer": null, "gamma_regularizer": null, "beta_constraint": null, "gamma_constraint": null}, "inbound_nodes": [[["conv2d_63", 0, 0, {}]]]}, {"name": "drop_connect_11", "class_name": "DropConnect", "config": {"name": "drop_connect_11", "trainable": true, "drop_connect_rate": 0.2}, "inbound_nodes": [[["batch_normalization_47", 0, 0, {}]]]}, {"name": "add_11", "class_name": "Add", "config": {"name": "add_11", "trainable": true}, "inbound_nodes": [[["drop_connect_11", 0, 0, {}], ["add_10", 0, 0, {}]]]}, {"name": "conv2d_64", "class_name": "Conv2D", "config": {"name": "conv2d_64", "trainable": true, "filters": 816, "kernel_size": [1, 1], "strides": [1, 1], "padding": "same", "data_format": "channels_last", "dilation_rate": [1, 1], "activation": "linear", "use_bias": false, "kernel_initializer": {"class_name": "EfficientConv2DKernelInitializer", "config": {}}, "bias_initializer": {"class_name": "Zeros", "config": {}}, "kernel_regularizer": null, "bias_regularizer": null, "activity_regularizer": null, "kernel_constraint": null, "bias_constraint": null}, "inbound_nodes": [[["add_11", 0, 0, {}]]]}, {"name": "batch_normalization_48", "class_name": "BatchNormalization", "config": {"name": "batch_normalization_48", "trainable": true, "axis": -1, "momentum": 0.99, "epsilon": 0.001, "center": true, "scale": true, "beta_initializer": {"class_name": "Zeros", "config": {}}, "gamma_initializer": {"class_name": "Ones", "config": {}}, "moving_mean_initializer": {"class_name": "Zeros", "config": {}}, "moving_variance_initializer": {"class_name": "Ones", "config": {}}, "beta_regularizer": null, "gamma_regularizer": null, "beta_constraint": null, "gamma_constraint": null}, "inbound_nodes": [[["conv2d_64", 0, 0, {}]]]}, {"name": "swish_48", "class_name": "Swish", "config": {"name": "swish_48", "trainable": true}, "inbound_nodes": [[["batch_normalization_48", 0, 0, {}]]]}, {"name": "depthwise_conv2d_17", "class_name": "DepthwiseConv2D", "config": {"name": "depthwise_conv2d_17", "trainable": true, "kernel_size": [5, 5], "strides": [1, 1], "padding": "same", "data_format": "channels_last", "dilation_rate": [1, 1], "activation": "linear", "use_bias": false, "bias_initializer": {"class_name": "Zeros", "config": {}}, "bias_regularizer": null, "activity_regularizer": null, "bias_constraint": null, "depth_multiplier": 1, "depthwise_initializer": {"class_name": "EfficientConv2DKernelInitializer", "config": {}}, "depthwise_regularizer": null, "depthwise_constraint": null}, "inbound_nodes": [[["swish_48", 0, 0, {}]]]}, {"name": "batch_normalization_49", "class_name": "BatchNormalization", "config": {"name": "batch_normalization_49", "trainable": true, "axis": -1, "momentum": 0.99, "epsilon": 0.001, "center": true, "scale": true, "beta_initializer": {"class_name": "Zeros", "config": {}}, "gamma_initializer": {"class_name": "Ones", "config": {}}, "moving_mean_initializer": {"class_name": "Zeros", "config": {}}, "moving_variance_initializer": {"class_name": "Ones", "config": {}}, "beta_regularizer": null, "gamma_regularizer": null, "beta_constraint": null, "gamma_constraint": null}, "inbound_nodes": [[["depthwise_conv2d_17", 0, 0, {}]]]}, {"name": "swish_49", "class_name": "Swish", "config": {"name": "swish_49", "trainable": true}, "inbound_nodes": [[["batch_normalization_49", 0, 0, {}]]]}, {"name": "lambda_17", "class_name": "Lambda", "config": {"name": "lambda_17", "trainable": true, "function": ["4wEAAAAAAAAAAQAAAAUAAAATAAAAcxAAAAB0AGoBfACIAGQBZAKNA1MAKQNOVCkC2gRheGlz2ghr\nZWVwZGltcykC2gFL2gRtZWFuKQHaAWEpAdoMc3BhdGlhbF9kaW1zqQD6UC9ob21lL3BhdWwvYW5h\nY29uZGEzL2VudnMvR1NPQy9saWIvcHl0aG9uMy43L3NpdGUtcGFja2FnZXMvZWZmaWNpZW50bmV0\nL21vZGVsLnB52gg8bGFtYmRhPlcAAADzAAAAAA==\n", null, [[1, 2]]], "function_type": "lambda", "output_shape": null, "output_shape_type": "raw", "arguments": {}}, "inbound_nodes": [[["swish_49", 0, 0, {}]]]}, {"name": "conv2d_65", "class_name": "Conv2D", "config": {"name": "conv2d_65", "trainable": true, "filters": 34, "kernel_size": [1, 1], "strides": [1, 1], "padding": "same", "data_format": "channels_last", "dilation_rate": [1, 1], "activation": "linear", "use_bias": true, "kernel_initializer": {"class_name": "EfficientConv2DKernelInitializer", "config": {}}, "bias_initializer": {"class_name": "Zeros", "config": {}}, "kernel_regularizer": null, "bias_regularizer": null, "activity_regularizer": null, "kernel_constraint": null, "bias_constraint": null}, "inbound_nodes": [[["lambda_17", 0, 0, {}]]]}, {"name": "swish_50", "class_name": "Swish", "config": {"name": "swish_50", "trainable": true}, "inbound_nodes": [[["conv2d_65", 0, 0, {}]]]}, {"name": "conv2d_66", "class_name": "Conv2D", "config": {"name": "conv2d_66", "trainable": true, "filters": 816, "kernel_size": [1, 1], "strides": [1, 1], "padding": "same", "data_format": "channels_last", "dilation_rate": [1, 1], "activation": "linear", "use_bias": true, "kernel_initializer": {"class_name": "EfficientConv2DKernelInitializer", "config": {}}, "bias_initializer": {"class_name": "Zeros", "config": {}}, "kernel_regularizer": null, "bias_regularizer": null, "activity_regularizer": null, "kernel_constraint": null, "bias_constraint": null}, "inbound_nodes": [[["swish_50", 0, 0, {}]]]}, {"name": "activation_17", "class_name": "Activation", "config": {"name": "activation_17", "trainable": true, "activation": "sigmoid"}, "inbound_nodes": [[["conv2d_66", 0, 0, {}]]]}, {"name": "multiply_17", "class_name": "Multiply", "config": {"name": "multiply_17", "trainable": true}, "inbound_nodes": [[["activation_17", 0, 0, {}], ["swish_49", 0, 0, {}]]]}, {"name": "conv2d_67", "class_name": "Conv2D", "config": {"name": "conv2d_67", "trainable": true, "filters": 136, "kernel_size": [1, 1], "strides": [1, 1], "padding": "same", "data_format": "channels_last", "dilation_rate": [1, 1], "activation": "linear", "use_bias": false, "kernel_initializer": {"class_name": "EfficientConv2DKernelInitializer", "config": {}}, "bias_initializer": {"class_name": "Zeros", "config": {}}, "kernel_regularizer": null, "bias_regularizer": null, "activity_regularizer": null, "kernel_constraint": null, "bias_constraint": null}, "inbound_nodes": [[["multiply_17", 0, 0, {}]]]}, {"name": "batch_normalization_50", "class_name": "BatchNormalization", "config": {"name": "batch_normalization_50", "trainable": true, "axis": -1, "momentum": 0.99, "epsilon": 0.001, "center": true, "scale": true, "beta_initializer": {"class_name": "Zeros", "config": {}}, "gamma_initializer": {"class_name": "Ones", "config": {}}, "moving_mean_initializer": {"class_name": "Zeros", "config": {}}, "moving_variance_initializer": {"class_name": "Ones", "config": {}}, "beta_regularizer": null, "gamma_regularizer": null, "beta_constraint": null, "gamma_constraint": null}, "inbound_nodes": [[["conv2d_67", 0, 0, {}]]]}, {"name": "drop_connect_12", "class_name": "DropConnect", "config": {"name": "drop_connect_12", "trainable": true, "drop_connect_rate": 0.21250000000000002}, "inbound_nodes": [[["batch_normalization_50", 0, 0, {}]]]}, {"name": "add_12", "class_name": "Add", "config": {"name": "add_12", "trainable": true}, "inbound_nodes": [[["drop_connect_12", 0, 0, {}], ["add_11", 0, 0, {}]]]}, {"name": "conv2d_68", "class_name": "Conv2D", "config": {"name": "conv2d_68", "trainable": true, "filters": 816, "kernel_size": [1, 1], "strides": [1, 1], "padding": "same", "data_format": "channels_last", "dilation_rate": [1, 1], "activation": "linear", "use_bias": false, "kernel_initializer": {"class_name": "EfficientConv2DKernelInitializer", "config": {}}, "bias_initializer": {"class_name": "Zeros", "config": {}}, "kernel_regularizer": null, "bias_regularizer": null, "activity_regularizer": null, "kernel_constraint": null, "bias_constraint": null}, "inbound_nodes": [[["add_12", 0, 0, {}]]]}, {"name": "batch_normalization_51", "class_name": "BatchNormalization", "config": {"name": "batch_normalization_51", "trainable": true, "axis": -1, "momentum": 0.99, "epsilon": 0.001, "center": true, "scale": true, "beta_initializer": {"class_name": "Zeros", "config": {}}, "gamma_initializer": {"class_name": "Ones", "config": {}}, "moving_mean_initializer": {"class_name": "Zeros", "config": {}}, "moving_variance_initializer": {"class_name": "Ones", "config": {}}, "beta_regularizer": null, "gamma_regularizer": null, "beta_constraint": null, "gamma_constraint": null}, "inbound_nodes": [[["conv2d_68", 0, 0, {}]]]}, {"name": "swish_51", "class_name": "Swish", "config": {"name": "swish_51", "trainable": true}, "inbound_nodes": [[["batch_normalization_51", 0, 0, {}]]]}, {"name": "depthwise_conv2d_18", "class_name": "DepthwiseConv2D", "config": {"name": "depthwise_conv2d_18", "trainable": true, "kernel_size": [5, 5], "strides": [1, 1], "padding": "same", "data_format": "channels_last", "dilation_rate": [1, 1], "activation": "linear", "use_bias": false, "bias_initializer": {"class_name": "Zeros", "config": {}}, "bias_regularizer": null, "activity_regularizer": null, "bias_constraint": null, "depth_multiplier": 1, "depthwise_initializer": {"class_name": "EfficientConv2DKernelInitializer", "config": {}}, "depthwise_regularizer": null, "depthwise_constraint": null}, "inbound_nodes": [[["swish_51", 0, 0, {}]]]}, {"name": "batch_normalization_52", "class_name": "BatchNormalization", "config": {"name": "batch_normalization_52", "trainable": true, "axis": -1, "momentum": 0.99, "epsilon": 0.001, "center": true, "scale": true, "beta_initializer": {"class_name": "Zeros", "config": {}}, "gamma_initializer": {"class_name": "Ones", "config": {}}, "moving_mean_initializer": {"class_name": "Zeros", "config": {}}, "moving_variance_initializer": {"class_name": "Ones", "config": {}}, "beta_regularizer": null, "gamma_regularizer": null, "beta_constraint": null, "gamma_constraint": null}, "inbound_nodes": [[["depthwise_conv2d_18", 0, 0, {}]]]}, {"name": "swish_52", "class_name": "Swish", "config": {"name": "swish_52", "trainable": true}, "inbound_nodes": [[["batch_normalization_52", 0, 0, {}]]]}, {"name": "lambda_18", "class_name": "Lambda", "config": {"name": "lambda_18", "trainable": true, "function": ["4wEAAAAAAAAAAQAAAAUAAAATAAAAcxAAAAB0AGoBfACIAGQBZAKNA1MAKQNOVCkC2gRheGlz2ghr\nZWVwZGltcykC2gFL2gRtZWFuKQHaAWEpAdoMc3BhdGlhbF9kaW1zqQD6UC9ob21lL3BhdWwvYW5h\nY29uZGEzL2VudnMvR1NPQy9saWIvcHl0aG9uMy43L3NpdGUtcGFja2FnZXMvZWZmaWNpZW50bmV0\nL21vZGVsLnB52gg8bGFtYmRhPlcAAADzAAAAAA==\n", null, [[1, 2]]], "function_type": "lambda", "output_shape": null, "output_shape_type": "raw", "arguments": {}}, "inbound_nodes": [[["swish_52", 0, 0, {}]]]}, {"name": "conv2d_69", "class_name": "Conv2D", "config": {"name": "conv2d_69", "trainable": true, "filters": 34, "kernel_size": [1, 1], "strides": [1, 1], "padding": "same", "data_format": "channels_last", "dilation_rate": [1, 1], "activation": "linear", "use_bias": true, "kernel_initializer": {"class_name": "EfficientConv2DKernelInitializer", "config": {}}, "bias_initializer": {"class_name": "Zeros", "config": {}}, "kernel_regularizer": null, "bias_regularizer": null, "activity_regularizer": null, "kernel_constraint": null, "bias_constraint": null}, "inbound_nodes": [[["lambda_18", 0, 0, {}]]]}, {"name": "swish_53", "class_name": "Swish", "config": {"name": "swish_53", "trainable": true}, "inbound_nodes": [[["conv2d_69", 0, 0, {}]]]}, {"name": "conv2d_70", "class_name": "Conv2D", "config": {"name": "conv2d_70", "trainable": true, "filters": 816, "kernel_size": [1, 1], "strides": [1, 1], "padding": "same", "data_format": "channels_last", "dilation_rate": [1, 1], "activation": "linear", "use_bias": true, "kernel_initializer": {"class_name": "EfficientConv2DKernelInitializer", "config": {}}, "bias_initializer": {"class_name": "Zeros", "config": {}}, "kernel_regularizer": null, "bias_regularizer": null, "activity_regularizer": null, "kernel_constraint": null, "bias_constraint": null}, "inbound_nodes": [[["swish_53", 0, 0, {}]]]}, {"name": "activation_18", "class_name": "Activation", "config": {"name": "activation_18", "trainable": true, "activation": "sigmoid"}, "inbound_nodes": [[["conv2d_70", 0, 0, {}]]]}, {"name": "multiply_18", "class_name": "Multiply", "config": {"name": "multiply_18", "trainable": true}, "inbound_nodes": [[["activation_18", 0, 0, {}], ["swish_52", 0, 0, {}]]]}, {"name": "conv2d_71", "class_name": "Conv2D", "config": {"name": "conv2d_71", "trainable": true, "filters": 136, "kernel_size": [1, 1], "strides": [1, 1], "padding": "same", "data_format": "channels_last", "dilation_rate": [1, 1], "activation": "linear", "use_bias": false, "kernel_initializer": {"class_name": "EfficientConv2DKernelInitializer", "config": {}}, "bias_initializer": {"class_name": "Zeros", "config": {}}, "kernel_regularizer": null, "bias_regularizer": null, "activity_regularizer": null, "kernel_constraint": null, "bias_constraint": null}, "inbound_nodes": [[["multiply_18", 0, 0, {}]]]}, {"name": "batch_normalization_53", "class_name": "BatchNormalization", "config": {"name": "batch_normalization_53", "trainable": true, "axis": -1, "momentum": 0.99, "epsilon": 0.001, "center": true, "scale": true, "beta_initializer": {"class_name": "Zeros", "config": {}}, "gamma_initializer": {"class_name": "Ones", "config": {}}, "moving_mean_initializer": {"class_name": "Zeros", "config": {}}, "moving_variance_initializer": {"class_name": "Ones", "config": {}}, "beta_regularizer": null, "gamma_regularizer": null, "beta_constraint": null, "gamma_constraint": null}, "inbound_nodes": [[["conv2d_71", 0, 0, {}]]]}, {"name": "drop_connect_13", "class_name": "DropConnect", "config": {"name": "drop_connect_13", "trainable": true, "drop_connect_rate": 0.225}, "inbound_nodes": [[["batch_normalization_53", 0, 0, {}]]]}, {"name": "add_13", "class_name": "Add", "config": {"name": "add_13", "trainable": true}, "inbound_nodes": [[["drop_connect_13", 0, 0, {}], ["add_12", 0, 0, {}]]]}, {"name": "conv2d_72", "class_name": "Conv2D", "config": {"name": "conv2d_72", "trainable": true, "filters": 816, "kernel_size": [1, 1], "strides": [1, 1], "padding": "same", "data_format": "channels_last", "dilation_rate": [1, 1], "activation": "linear", "use_bias": false, "kernel_initializer": {"class_name": "EfficientConv2DKernelInitializer", "config": {}}, "bias_initializer": {"class_name": "Zeros", "config": {}}, "kernel_regularizer": null, "bias_regularizer": null, "activity_regularizer": null, "kernel_constraint": null, "bias_constraint": null}, "inbound_nodes": [[["add_13", 0, 0, {}]]]}, {"name": "batch_normalization_54", "class_name": "BatchNormalization", "config": {"name": "batch_normalization_54", "trainable": true, "axis": -1, "momentum": 0.99, "epsilon": 0.001, "center": true, "scale": true, "beta_initializer": {"class_name": "Zeros", "config": {}}, "gamma_initializer": {"class_name": "Ones", "config": {}}, "moving_mean_initializer": {"class_name": "Zeros", "config": {}}, "moving_variance_initializer": {"class_name": "Ones", "config": {}}, "beta_regularizer": null, "gamma_regularizer": null, "beta_constraint": null, "gamma_constraint": null}, "inbound_nodes": [[["conv2d_72", 0, 0, {}]]]}, {"name": "swish_54", "class_name": "Swish", "config": {"name": "swish_54", "trainable": true}, "inbound_nodes": [[["batch_normalization_54", 0, 0, {}]]]}, {"name": "depthwise_conv2d_19", "class_name": "DepthwiseConv2D", "config": {"name": "depthwise_conv2d_19", "trainable": true, "kernel_size": [5, 5], "strides": [2, 2], "padding": "same", "data_format": "channels_last", "dilation_rate": [1, 1], "activation": "linear", "use_bias": false, "bias_initializer": {"class_name": "Zeros", "config": {}}, "bias_regularizer": null, "activity_regularizer": null, "bias_constraint": null, "depth_multiplier": 1, "depthwise_initializer": {"class_name": "EfficientConv2DKernelInitializer", "config": {}}, "depthwise_regularizer": null, "depthwise_constraint": null}, "inbound_nodes": [[["swish_54", 0, 0, {}]]]}, {"name": "batch_normalization_55", "class_name": "BatchNormalization", "config": {"name": "batch_normalization_55", "trainable": true, "axis": -1, "momentum": 0.99, "epsilon": 0.001, "center": true, "scale": true, "beta_initializer": {"class_name": "Zeros", "config": {}}, "gamma_initializer": {"class_name": "Ones", "config": {}}, "moving_mean_initializer": {"class_name": "Zeros", "config": {}}, "moving_variance_initializer": {"class_name": "Ones", "config": {}}, "beta_regularizer": null, "gamma_regularizer": null, "beta_constraint": null, "gamma_constraint": null}, "inbound_nodes": [[["depthwise_conv2d_19", 0, 0, {}]]]}, {"name": "swish_55", "class_name": "Swish", "config": {"name": "swish_55", "trainable": true}, "inbound_nodes": [[["batch_normalization_55", 0, 0, {}]]]}, {"name": "lambda_19", "class_name": "Lambda", "config": {"name": "lambda_19", "trainable": true, "function": ["4wEAAAAAAAAAAQAAAAUAAAATAAAAcxAAAAB0AGoBfACIAGQBZAKNA1MAKQNOVCkC2gRheGlz2ghr\nZWVwZGltcykC2gFL2gRtZWFuKQHaAWEpAdoMc3BhdGlhbF9kaW1zqQD6UC9ob21lL3BhdWwvYW5h\nY29uZGEzL2VudnMvR1NPQy9saWIvcHl0aG9uMy43L3NpdGUtcGFja2FnZXMvZWZmaWNpZW50bmV0\nL21vZGVsLnB52gg8bGFtYmRhPlcAAADzAAAAAA==\n", null, [[1, 2]]], "function_type": "lambda", "output_shape": null, "output_shape_type": "raw", "arguments": {}}, "inbound_nodes": [[["swish_55", 0, 0, {}]]]}, {"name": "conv2d_73", "class_name": "Conv2D", "config": {"name": "conv2d_73", "trainable": true, "filters": 34, "kernel_size": [1, 1], "strides": [1, 1], "padding": "same", "data_format": "channels_last", "dilation_rate": [1, 1], "activation": "linear", "use_bias": true, "kernel_initializer": {"class_name": "EfficientConv2DKernelInitializer", "config": {}}, "bias_initializer": {"class_name": "Zeros", "config": {}}, "kernel_regularizer": null, "bias_regularizer": null, "activity_regularizer": null, "kernel_constraint": null, "bias_constraint": null}, "inbound_nodes": [[["lambda_19", 0, 0, {}]]]}, {"name": "swish_56", "class_name": "Swish", "config": {"name": "swish_56", "trainable": true}, "inbound_nodes": [[["conv2d_73", 0, 0, {}]]]}, {"name": "conv2d_74", "class_name": "Conv2D", "config": {"name": "conv2d_74", "trainable": true, "filters": 816, "kernel_size": [1, 1], "strides": [1, 1], "padding": "same", "data_format": "channels_last", "dilation_rate": [1, 1], "activation": "linear", "use_bias": true, "kernel_initializer": {"class_name": "EfficientConv2DKernelInitializer", "config": {}}, "bias_initializer": {"class_name": "Zeros", "config": {}}, "kernel_regularizer": null, "bias_regularizer": null, "activity_regularizer": null, "kernel_constraint": null, "bias_constraint": null}, "inbound_nodes": [[["swish_56", 0, 0, {}]]]}, {"name": "activation_19", "class_name": "Activation", "config": {"name": "activation_19", "trainable": true, "activation": "sigmoid"}, "inbound_nodes": [[["conv2d_74", 0, 0, {}]]]}, {"name": "multiply_19", "class_name": "Multiply", "config": {"name": "multiply_19", "trainable": true}, "inbound_nodes": [[["activation_19", 0, 0, {}], ["swish_55", 0, 0, {}]]]}, {"name": "conv2d_75", "class_name": "Conv2D", "config": {"name": "conv2d_75", "trainable": true, "filters": 232, "kernel_size": [1, 1], "strides": [1, 1], "padding": "same", "data_format": "channels_last", "dilation_rate": [1, 1], "activation": "linear", "use_bias": false, "kernel_initializer": {"class_name": "EfficientConv2DKernelInitializer", "config": {}}, "bias_initializer": {"class_name": "Zeros", "config": {}}, "kernel_regularizer": null, "bias_regularizer": null, "activity_regularizer": null, "kernel_constraint": null, "bias_constraint": null}, "inbound_nodes": [[["multiply_19", 0, 0, {}]]]}, {"name": "batch_normalization_56", "class_name": "BatchNormalization", "config": {"name": "batch_normalization_56", "trainable": true, "axis": -1, "momentum": 0.99, "epsilon": 0.001, "center": true, "scale": true, "beta_initializer": {"class_name": "Zeros", "config": {}}, "gamma_initializer": {"class_name": "Ones", "config": {}}, "moving_mean_initializer": {"class_name": "Zeros", "config": {}}, "moving_variance_initializer": {"class_name": "Ones", "config": {}}, "beta_regularizer": null, "gamma_regularizer": null, "beta_constraint": null, "gamma_constraint": null}, "inbound_nodes": [[["conv2d_75", 0, 0, {}]]]}, {"name": "conv2d_76", "class_name": "Conv2D", "config": {"name": "conv2d_76", "trainable": true, "filters": 1392, "kernel_size": [1, 1], "strides": [1, 1], "padding": "same", "data_format": "channels_last", "dilation_rate": [1, 1], "activation": "linear", "use_bias": false, "kernel_initializer": {"class_name": "EfficientConv2DKernelInitializer", "config": {}}, "bias_initializer": {"class_name": "Zeros", "config": {}}, "kernel_regularizer": null, "bias_regularizer": null, "activity_regularizer": null, "kernel_constraint": null, "bias_constraint": null}, "inbound_nodes": [[["batch_normalization_56", 0, 0, {}]]]}, {"name": "batch_normalization_57", "class_name": "BatchNormalization", "config": {"name": "batch_normalization_57", "trainable": true, "axis": -1, "momentum": 0.99, "epsilon": 0.001, "center": true, "scale": true, "beta_initializer": {"class_name": "Zeros", "config": {}}, "gamma_initializer": {"class_name": "Ones", "config": {}}, "moving_mean_initializer": {"class_name": "Zeros", "config": {}}, "moving_variance_initializer": {"class_name": "Ones", "config": {}}, "beta_regularizer": null, "gamma_regularizer": null, "beta_constraint": null, "gamma_constraint": null}, "inbound_nodes": [[["conv2d_76", 0, 0, {}]]]}, {"name": "swish_57", "class_name": "Swish", "config": {"name": "swish_57", "trainable": true}, "inbound_nodes": [[["batch_normalization_57", 0, 0, {}]]]}, {"name": "depthwise_conv2d_20", "class_name": "DepthwiseConv2D", "config": {"name": "depthwise_conv2d_20", "trainable": true, "kernel_size": [5, 5], "strides": [1, 1], "padding": "same", "data_format": "channels_last", "dilation_rate": [1, 1], "activation": "linear", "use_bias": false, "bias_initializer": {"class_name": "Zeros", "config": {}}, "bias_regularizer": null, "activity_regularizer": null, "bias_constraint": null, "depth_multiplier": 1, "depthwise_initializer": {"class_name": "EfficientConv2DKernelInitializer", "config": {}}, "depthwise_regularizer": null, "depthwise_constraint": null}, "inbound_nodes": [[["swish_57", 0, 0, {}]]]}, {"name": "batch_normalization_58", "class_name": "BatchNormalization", "config": {"name": "batch_normalization_58", "trainable": true, "axis": -1, "momentum": 0.99, "epsilon": 0.001, "center": true, "scale": true, "beta_initializer": {"class_name": "Zeros", "config": {}}, "gamma_initializer": {"class_name": "Ones", "config": {}}, "moving_mean_initializer": {"class_name": "Zeros", "config": {}}, "moving_variance_initializer": {"class_name": "Ones", "config": {}}, "beta_regularizer": null, "gamma_regularizer": null, "beta_constraint": null, "gamma_constraint": null}, "inbound_nodes": [[["depthwise_conv2d_20", 0, 0, {}]]]}, {"name": "swish_58", "class_name": "Swish", "config": {"name": "swish_58", "trainable": true}, "inbound_nodes": [[["batch_normalization_58", 0, 0, {}]]]}, {"name": "lambda_20", "class_name": "Lambda", "config": {"name": "lambda_20", "trainable": true, "function": ["4wEAAAAAAAAAAQAAAAUAAAATAAAAcxAAAAB0AGoBfACIAGQBZAKNA1MAKQNOVCkC2gRheGlz2ghr\nZWVwZGltcykC2gFL2gRtZWFuKQHaAWEpAdoMc3BhdGlhbF9kaW1zqQD6UC9ob21lL3BhdWwvYW5h\nY29uZGEzL2VudnMvR1NPQy9saWIvcHl0aG9uMy43L3NpdGUtcGFja2FnZXMvZWZmaWNpZW50bmV0\nL21vZGVsLnB52gg8bGFtYmRhPlcAAADzAAAAAA==\n", null, [[1, 2]]], "function_type": "lambda", "output_shape": null, "output_shape_type": "raw", "arguments": {}}, "inbound_nodes": [[["swish_58", 0, 0, {}]]]}, {"name": "conv2d_77", "class_name": "Conv2D", "config": {"name": "conv2d_77", "trainable": true, "filters": 58, "kernel_size": [1, 1], "strides": [1, 1], "padding": "same", "data_format": "channels_last", "dilation_rate": [1, 1], "activation": "linear", "use_bias": true, "kernel_initializer": {"class_name": "EfficientConv2DKernelInitializer", "config": {}}, "bias_initializer": {"class_name": "Zeros", "config": {}}, "kernel_regularizer": null, "bias_regularizer": null, "activity_regularizer": null, "kernel_constraint": null, "bias_constraint": null}, "inbound_nodes": [[["lambda_20", 0, 0, {}]]]}, {"name": "swish_59", "class_name": "Swish", "config": {"name": "swish_59", "trainable": true}, "inbound_nodes": [[["conv2d_77", 0, 0, {}]]]}, {"name": "conv2d_78", "class_name": "Conv2D", "config": {"name": "conv2d_78", "trainable": true, "filters": 1392, "kernel_size": [1, 1], "strides": [1, 1], "padding": "same", "data_format": "channels_last", "dilation_rate": [1, 1], "activation": "linear", "use_bias": true, "kernel_initializer": {"class_name": "EfficientConv2DKernelInitializer", "config": {}}, "bias_initializer": {"class_name": "Zeros", "config": {}}, "kernel_regularizer": null, "bias_regularizer": null, "activity_regularizer": null, "kernel_constraint": null, "bias_constraint": null}, "inbound_nodes": [[["swish_59", 0, 0, {}]]]}, {"name": "activation_20", "class_name": "Activation", "config": {"name": "activation_20", "trainable": true, "activation": "sigmoid"}, "inbound_nodes": [[["conv2d_78", 0, 0, {}]]]}, {"name": "multiply_20", "class_name": "Multiply", "config": {"name": "multiply_20", "trainable": true}, "inbound_nodes": [[["activation_20", 0, 0, {}], ["swish_58", 0, 0, {}]]]}, {"name": "conv2d_79", "class_name": "Conv2D", "config": {"name": "conv2d_79", "trainable": true, "filters": 232, "kernel_size": [1, 1], "strides": [1, 1], "padding": "same", "data_format": "channels_last", "dilation_rate": [1, 1], "activation": "linear", "use_bias": false, "kernel_initializer": {"class_name": "EfficientConv2DKernelInitializer", "config": {}}, "bias_initializer": {"class_name": "Zeros", "config": {}}, "kernel_regularizer": null, "bias_regularizer": null, "activity_regularizer": null, "kernel_constraint": null, "bias_constraint": null}, "inbound_nodes": [[["multiply_20", 0, 0, {}]]]}, {"name": "batch_normalization_59", "class_name": "BatchNormalization", "config": {"name": "batch_normalization_59", "trainable": true, "axis": -1, "momentum": 0.99, "epsilon": 0.001, "center": true, "scale": true, "beta_initializer": {"class_name": "Zeros", "config": {}}, "gamma_initializer": {"class_name": "Ones", "config": {}}, "moving_mean_initializer": {"class_name": "Zeros", "config": {}}, "moving_variance_initializer": {"class_name": "Ones", "config": {}}, "beta_regularizer": null, "gamma_regularizer": null, "beta_constraint": null, "gamma_constraint": null}, "inbound_nodes": [[["conv2d_79", 0, 0, {}]]]}, {"name": "drop_connect_14", "class_name": "DropConnect", "config": {"name": "drop_connect_14", "trainable": true, "drop_connect_rate": 0.25}, "inbound_nodes": [[["batch_normalization_59", 0, 0, {}]]]}, {"name": "add_14", "class_name": "Add", "config": {"name": "add_14", "trainable": true}, "inbound_nodes": [[["drop_connect_14", 0, 0, {}], ["batch_normalization_56", 0, 0, {}]]]}, {"name": "conv2d_80", "class_name": "Conv2D", "config": {"name": "conv2d_80", "trainable": true, "filters": 1392, "kernel_size": [1, 1], "strides": [1, 1], "padding": "same", "data_format": "channels_last", "dilation_rate": [1, 1], "activation": "linear", "use_bias": false, "kernel_initializer": {"class_name": "EfficientConv2DKernelInitializer", "config": {}}, "bias_initializer": {"class_name": "Zeros", "config": {}}, "kernel_regularizer": null, "bias_regularizer": null, "activity_regularizer": null, "kernel_constraint": null, "bias_constraint": null}, "inbound_nodes": [[["add_14", 0, 0, {}]]]}, {"name": "batch_normalization_60", "class_name": "BatchNormalization", "config": {"name": "batch_normalization_60", "trainable": true, "axis": -1, "momentum": 0.99, "epsilon": 0.001, "center": true, "scale": true, "beta_initializer": {"class_name": "Zeros", "config": {}}, "gamma_initializer": {"class_name": "Ones", "config": {}}, "moving_mean_initializer": {"class_name": "Zeros", "config": {}}, "moving_variance_initializer": {"class_name": "Ones", "config": {}}, "beta_regularizer": null, "gamma_regularizer": null, "beta_constraint": null, "gamma_constraint": null}, "inbound_nodes": [[["conv2d_80", 0, 0, {}]]]}, {"name": "swish_60", "class_name": "Swish", "config": {"name": "swish_60", "trainable": true}, "inbound_nodes": [[["batch_normalization_60", 0, 0, {}]]]}, {"name": "depthwise_conv2d_21", "class_name": "DepthwiseConv2D", "config": {"name": "depthwise_conv2d_21", "trainable": true, "kernel_size": [5, 5], "strides": [1, 1], "padding": "same", "data_format": "channels_last", "dilation_rate": [1, 1], "activation": "linear", "use_bias": false, "bias_initializer": {"class_name": "Zeros", "config": {}}, "bias_regularizer": null, "activity_regularizer": null, "bias_constraint": null, "depth_multiplier": 1, "depthwise_initializer": {"class_name": "EfficientConv2DKernelInitializer", "config": {}}, "depthwise_regularizer": null, "depthwise_constraint": null}, "inbound_nodes": [[["swish_60", 0, 0, {}]]]}, {"name": "batch_normalization_61", "class_name": "BatchNormalization", "config": {"name": "batch_normalization_61", "trainable": true, "axis": -1, "momentum": 0.99, "epsilon": 0.001, "center": true, "scale": true, "beta_initializer": {"class_name": "Zeros", "config": {}}, "gamma_initializer": {"class_name": "Ones", "config": {}}, "moving_mean_initializer": {"class_name": "Zeros", "config": {}}, "moving_variance_initializer": {"class_name": "Ones", "config": {}}, "beta_regularizer": null, "gamma_regularizer": null, "beta_constraint": null, "gamma_constraint": null}, "inbound_nodes": [[["depthwise_conv2d_21", 0, 0, {}]]]}, {"name": "swish_61", "class_name": "Swish", "config": {"name": "swish_61", "trainable": true}, "inbound_nodes": [[["batch_normalization_61", 0, 0, {}]]]}, {"name": "lambda_21", "class_name": "Lambda", "config": {"name": "lambda_21", "trainable": true, "function": ["4wEAAAAAAAAAAQAAAAUAAAATAAAAcxAAAAB0AGoBfACIAGQBZAKNA1MAKQNOVCkC2gRheGlz2ghr\nZWVwZGltcykC2gFL2gRtZWFuKQHaAWEpAdoMc3BhdGlhbF9kaW1zqQD6UC9ob21lL3BhdWwvYW5h\nY29uZGEzL2VudnMvR1NPQy9saWIvcHl0aG9uMy43L3NpdGUtcGFja2FnZXMvZWZmaWNpZW50bmV0\nL21vZGVsLnB52gg8bGFtYmRhPlcAAADzAAAAAA==\n", null, [[1, 2]]], "function_type": "lambda", "output_shape": null, "output_shape_type": "raw", "arguments": {}}, "inbound_nodes": [[["swish_61", 0, 0, {}]]]}, {"name": "conv2d_81", "class_name": "Conv2D", "config": {"name": "conv2d_81", "trainable": true, "filters": 58, "kernel_size": [1, 1], "strides": [1, 1], "padding": "same", "data_format": "channels_last", "dilation_rate": [1, 1], "activation": "linear", "use_bias": true, "kernel_initializer": {"class_name": "EfficientConv2DKernelInitializer", "config": {}}, "bias_initializer": {"class_name": "Zeros", "config": {}}, "kernel_regularizer": null, "bias_regularizer": null, "activity_regularizer": null, "kernel_constraint": null, "bias_constraint": null}, "inbound_nodes": [[["lambda_21", 0, 0, {}]]]}, {"name": "swish_62", "class_name": "Swish", "config": {"name": "swish_62", "trainable": true}, "inbound_nodes": [[["conv2d_81", 0, 0, {}]]]}, {"name": "conv2d_82", "class_name": "Conv2D", "config": {"name": "conv2d_82", "trainable": true, "filters": 1392, "kernel_size": [1, 1], "strides": [1, 1], "padding": "same", "data_format": "channels_last", "dilation_rate": [1, 1], "activation": "linear", "use_bias": true, "kernel_initializer": {"class_name": "EfficientConv2DKernelInitializer", "config": {}}, "bias_initializer": {"class_name": "Zeros", "config": {}}, "kernel_regularizer": null, "bias_regularizer": null, "activity_regularizer": null, "kernel_constraint": null, "bias_constraint": null}, "inbound_nodes": [[["swish_62", 0, 0, {}]]]}, {"name": "activation_21", "class_name": "Activation", "config": {"name": "activation_21", "trainable": true, "activation": "sigmoid"}, "inbound_nodes": [[["conv2d_82", 0, 0, {}]]]}, {"name": "multiply_21", "class_name": "Multiply", "config": {"name": "multiply_21", "trainable": true}, "inbound_nodes": [[["activation_21", 0, 0, {}], ["swish_61", 0, 0, {}]]]}, {"name": "conv2d_83", "class_name": "Conv2D", "config": {"name": "conv2d_83", "trainable": true, "filters": 232, "kernel_size": [1, 1], "strides": [1, 1], "padding": "same", "data_format": "channels_last", "dilation_rate": [1, 1], "activation": "linear", "use_bias": false, "kernel_initializer": {"class_name": "EfficientConv2DKernelInitializer", "config": {}}, "bias_initializer": {"class_name": "Zeros", "config": {}}, "kernel_regularizer": null, "bias_regularizer": null, "activity_regularizer": null, "kernel_constraint": null, "bias_constraint": null}, "inbound_nodes": [[["multiply_21", 0, 0, {}]]]}, {"name": "batch_normalization_62", "class_name": "BatchNormalization", "config": {"name": "batch_normalization_62", "trainable": true, "axis": -1, "momentum": 0.99, "epsilon": 0.001, "center": true, "scale": true, "beta_initializer": {"class_name": "Zeros", "config": {}}, "gamma_initializer": {"class_name": "Ones", "config": {}}, "moving_mean_initializer": {"class_name": "Zeros", "config": {}}, "moving_variance_initializer": {"class_name": "Ones", "config": {}}, "beta_regularizer": null, "gamma_regularizer": null, "beta_constraint": null, "gamma_constraint": null}, "inbound_nodes": [[["conv2d_83", 0, 0, {}]]]}, {"name": "drop_connect_15", "class_name": "DropConnect", "config": {"name": "drop_connect_15", "trainable": true, "drop_connect_rate": 0.2625}, "inbound_nodes": [[["batch_normalization_62", 0, 0, {}]]]}, {"name": "add_15", "class_name": "Add", "config": {"name": "add_15", "trainable": true}, "inbound_nodes": [[["drop_connect_15", 0, 0, {}], ["add_14", 0, 0, {}]]]}, {"name": "conv2d_84", "class_name": "Conv2D", "config": {"name": "conv2d_84", "trainable": true, "filters": 1392, "kernel_size": [1, 1], "strides": [1, 1], "padding": "same", "data_format": "channels_last", "dilation_rate": [1, 1], "activation": "linear", "use_bias": false, "kernel_initializer": {"class_name": "EfficientConv2DKernelInitializer", "config": {}}, "bias_initializer": {"class_name": "Zeros", "config": {}}, "kernel_regularizer": null, "bias_regularizer": null, "activity_regularizer": null, "kernel_constraint": null, "bias_constraint": null}, "inbound_nodes": [[["add_15", 0, 0, {}]]]}, {"name": "batch_normalization_63", "class_name": "BatchNormalization", "config": {"name": "batch_normalization_63", "trainable": true, "axis": -1, "momentum": 0.99, "epsilon": 0.001, "center": true, "scale": true, "beta_initializer": {"class_name": "Zeros", "config": {}}, "gamma_initializer": {"class_name": "Ones", "config": {}}, "moving_mean_initializer": {"class_name": "Zeros", "config": {}}, "moving_variance_initializer": {"class_name": "Ones", "config": {}}, "beta_regularizer": null, "gamma_regularizer": null, "beta_constraint": null, "gamma_constraint": null}, "inbound_nodes": [[["conv2d_84", 0, 0, {}]]]}, {"name": "swish_63", "class_name": "Swish", "config": {"name": "swish_63", "trainable": true}, "inbound_nodes": [[["batch_normalization_63", 0, 0, {}]]]}, {"name": "depthwise_conv2d_22", "class_name": "DepthwiseConv2D", "config": {"name": "depthwise_conv2d_22", "trainable": true, "kernel_size": [5, 5], "strides": [1, 1], "padding": "same", "data_format": "channels_last", "dilation_rate": [1, 1], "activation": "linear", "use_bias": false, "bias_initializer": {"class_name": "Zeros", "config": {}}, "bias_regularizer": null, "activity_regularizer": null, "bias_constraint": null, "depth_multiplier": 1, "depthwise_initializer": {"class_name": "EfficientConv2DKernelInitializer", "config": {}}, "depthwise_regularizer": null, "depthwise_constraint": null}, "inbound_nodes": [[["swish_63", 0, 0, {}]]]}, {"name": "batch_normalization_64", "class_name": "BatchNormalization", "config": {"name": "batch_normalization_64", "trainable": true, "axis": -1, "momentum": 0.99, "epsilon": 0.001, "center": true, "scale": true, "beta_initializer": {"class_name": "Zeros", "config": {}}, "gamma_initializer": {"class_name": "Ones", "config": {}}, "moving_mean_initializer": {"class_name": "Zeros", "config": {}}, "moving_variance_initializer": {"class_name": "Ones", "config": {}}, "beta_regularizer": null, "gamma_regularizer": null, "beta_constraint": null, "gamma_constraint": null}, "inbound_nodes": [[["depthwise_conv2d_22", 0, 0, {}]]]}, {"name": "swish_64", "class_name": "Swish", "config": {"name": "swish_64", "trainable": true}, "inbound_nodes": [[["batch_normalization_64", 0, 0, {}]]]}, {"name": "lambda_22", "class_name": "Lambda", "config": {"name": "lambda_22", "trainable": true, "function": ["4wEAAAAAAAAAAQAAAAUAAAATAAAAcxAAAAB0AGoBfACIAGQBZAKNA1MAKQNOVCkC2gRheGlz2ghr\nZWVwZGltcykC2gFL2gRtZWFuKQHaAWEpAdoMc3BhdGlhbF9kaW1zqQD6UC9ob21lL3BhdWwvYW5h\nY29uZGEzL2VudnMvR1NPQy9saWIvcHl0aG9uMy43L3NpdGUtcGFja2FnZXMvZWZmaWNpZW50bmV0\nL21vZGVsLnB52gg8bGFtYmRhPlcAAADzAAAAAA==\n", null, [[1, 2]]], "function_type": "lambda", "output_shape": null, "output_shape_type": "raw", "arguments": {}}, "inbound_nodes": [[["swish_64", 0, 0, {}]]]}, {"name": "conv2d_85", "class_name": "Conv2D", "config": {"name": "conv2d_85", "trainable": true, "filters": 58, "kernel_size": [1, 1], "strides": [1, 1], "padding": "same", "data_format": "channels_last", "dilation_rate": [1, 1], "activation": "linear", "use_bias": true, "kernel_initializer": {"class_name": "EfficientConv2DKernelInitializer", "config": {}}, "bias_initializer": {"class_name": "Zeros", "config": {}}, "kernel_regularizer": null, "bias_regularizer": null, "activity_regularizer": null, "kernel_constraint": null, "bias_constraint": null}, "inbound_nodes": [[["lambda_22", 0, 0, {}]]]}, {"name": "swish_65", "class_name": "Swish", "config": {"name": "swish_65", "trainable": true}, "inbound_nodes": [[["conv2d_85", 0, 0, {}]]]}, {"name": "conv2d_86", "class_name": "Conv2D", "config": {"name": "conv2d_86", "trainable": true, "filters": 1392, "kernel_size": [1, 1], "strides": [1, 1], "padding": "same", "data_format": "channels_last", "dilation_rate": [1, 1], "activation": "linear", "use_bias": true, "kernel_initializer": {"class_name": "EfficientConv2DKernelInitializer", "config": {}}, "bias_initializer": {"class_name": "Zeros", "config": {}}, "kernel_regularizer": null, "bias_regularizer": null, "activity_regularizer": null, "kernel_constraint": null, "bias_constraint": null}, "inbound_nodes": [[["swish_65", 0, 0, {}]]]}, {"name": "activation_22", "class_name": "Activation", "config": {"name": "activation_22", "trainable": true, "activation": "sigmoid"}, "inbound_nodes": [[["conv2d_86", 0, 0, {}]]]}, {"name": "multiply_22", "class_name": "Multiply", "config": {"name": "multiply_22", "trainable": true}, "inbound_nodes": [[["activation_22", 0, 0, {}], ["swish_64", 0, 0, {}]]]}, {"name": "conv2d_87", "class_name": "Conv2D", "config": {"name": "conv2d_87", "trainable": true, "filters": 232, "kernel_size": [1, 1], "strides": [1, 1], "padding": "same", "data_format": "channels_last", "dilation_rate": [1, 1], "activation": "linear", "use_bias": false, "kernel_initializer": {"class_name": "EfficientConv2DKernelInitializer", "config": {}}, "bias_initializer": {"class_name": "Zeros", "config": {}}, "kernel_regularizer": null, "bias_regularizer": null, "activity_regularizer": null, "kernel_constraint": null, "bias_constraint": null}, "inbound_nodes": [[["multiply_22", 0, 0, {}]]]}, {"name": "batch_normalization_65", "class_name": "BatchNormalization", "config": {"name": "batch_normalization_65", "trainable": true, "axis": -1, "momentum": 0.99, "epsilon": 0.001, "center": true, "scale": true, "beta_initializer": {"class_name": "Zeros", "config": {}}, "gamma_initializer": {"class_name": "Ones", "config": {}}, "moving_mean_initializer": {"class_name": "Zeros", "config": {}}, "moving_variance_initializer": {"class_name": "Ones", "config": {}}, "beta_regularizer": null, "gamma_regularizer": null, "beta_constraint": null, "gamma_constraint": null}, "inbound_nodes": [[["conv2d_87", 0, 0, {}]]]}, {"name": "drop_connect_16", "class_name": "DropConnect", "config": {"name": "drop_connect_16", "trainable": true, "drop_connect_rate": 0.275}, "inbound_nodes": [[["batch_normalization_65", 0, 0, {}]]]}, {"name": "add_16", "class_name": "Add", "config": {"name": "add_16", "trainable": true}, "inbound_nodes": [[["drop_connect_16", 0, 0, {}], ["add_15", 0, 0, {}]]]}, {"name": "conv2d_88", "class_name": "Conv2D", "config": {"name": "conv2d_88", "trainable": true, "filters": 1392, "kernel_size": [1, 1], "strides": [1, 1], "padding": "same", "data_format": "channels_last", "dilation_rate": [1, 1], "activation": "linear", "use_bias": false, "kernel_initializer": {"class_name": "EfficientConv2DKernelInitializer", "config": {}}, "bias_initializer": {"class_name": "Zeros", "config": {}}, "kernel_regularizer": null, "bias_regularizer": null, "activity_regularizer": null, "kernel_constraint": null, "bias_constraint": null}, "inbound_nodes": [[["add_16", 0, 0, {}]]]}, {"name": "batch_normalization_66", "class_name": "BatchNormalization", "config": {"name": "batch_normalization_66", "trainable": true, "axis": -1, "momentum": 0.99, "epsilon": 0.001, "center": true, "scale": true, "beta_initializer": {"class_name": "Zeros", "config": {}}, "gamma_initializer": {"class_name": "Ones", "config": {}}, "moving_mean_initializer": {"class_name": "Zeros", "config": {}}, "moving_variance_initializer": {"class_name": "Ones", "config": {}}, "beta_regularizer": null, "gamma_regularizer": null, "beta_constraint": null, "gamma_constraint": null}, "inbound_nodes": [[["conv2d_88", 0, 0, {}]]]}, {"name": "swish_66", "class_name": "Swish", "config": {"name": "swish_66", "trainable": true}, "inbound_nodes": [[["batch_normalization_66", 0, 0, {}]]]}, {"name": "depthwise_conv2d_23", "class_name": "DepthwiseConv2D", "config": {"name": "depthwise_conv2d_23", "trainable": true, "kernel_size": [5, 5], "strides": [1, 1], "padding": "same", "data_format": "channels_last", "dilation_rate": [1, 1], "activation": "linear", "use_bias": false, "bias_initializer": {"class_name": "Zeros", "config": {}}, "bias_regularizer": null, "activity_regularizer": null, "bias_constraint": null, "depth_multiplier": 1, "depthwise_initializer": {"class_name": "EfficientConv2DKernelInitializer", "config": {}}, "depthwise_regularizer": null, "depthwise_constraint": null}, "inbound_nodes": [[["swish_66", 0, 0, {}]]]}, {"name": "batch_normalization_67", "class_name": "BatchNormalization", "config": {"name": "batch_normalization_67", "trainable": true, "axis": -1, "momentum": 0.99, "epsilon": 0.001, "center": true, "scale": true, "beta_initializer": {"class_name": "Zeros", "config": {}}, "gamma_initializer": {"class_name": "Ones", "config": {}}, "moving_mean_initializer": {"class_name": "Zeros", "config": {}}, "moving_variance_initializer": {"class_name": "Ones", "config": {}}, "beta_regularizer": null, "gamma_regularizer": null, "beta_constraint": null, "gamma_constraint": null}, "inbound_nodes": [[["depthwise_conv2d_23", 0, 0, {}]]]}, {"name": "swish_67", "class_name": "Swish", "config": {"name": "swish_67", "trainable": true}, "inbound_nodes": [[["batch_normalization_67", 0, 0, {}]]]}, {"name": "lambda_23", "class_name": "Lambda", "config": {"name": "lambda_23", "trainable": true, "function": ["4wEAAAAAAAAAAQAAAAUAAAATAAAAcxAAAAB0AGoBfACIAGQBZAKNA1MAKQNOVCkC2gRheGlz2ghr\nZWVwZGltcykC2gFL2gRtZWFuKQHaAWEpAdoMc3BhdGlhbF9kaW1zqQD6UC9ob21lL3BhdWwvYW5h\nY29uZGEzL2VudnMvR1NPQy9saWIvcHl0aG9uMy43L3NpdGUtcGFja2FnZXMvZWZmaWNpZW50bmV0\nL21vZGVsLnB52gg8bGFtYmRhPlcAAADzAAAAAA==\n", null, [[1, 2]]], "function_type": "lambda", "output_shape": null, "output_shape_type": "raw", "arguments": {}}, "inbound_nodes": [[["swish_67", 0, 0, {}]]]}, {"name": "conv2d_89", "class_name": "Conv2D", "config": {"name": "conv2d_89", "trainable": true, "filters": 58, "kernel_size": [1, 1], "strides": [1, 1], "padding": "same", "data_format": "channels_last", "dilation_rate": [1, 1], "activation": "linear", "use_bias": true, "kernel_initializer": {"class_name": "EfficientConv2DKernelInitializer", "config": {}}, "bias_initializer": {"class_name": "Zeros", "config": {}}, "kernel_regularizer": null, "bias_regularizer": null, "activity_regularizer": null, "kernel_constraint": null, "bias_constraint": null}, "inbound_nodes": [[["lambda_23", 0, 0, {}]]]}, {"name": "swish_68", "class_name": "Swish", "config": {"name": "swish_68", "trainable": true}, "inbound_nodes": [[["conv2d_89", 0, 0, {}]]]}, {"name": "conv2d_90", "class_name": "Conv2D", "config": {"name": "conv2d_90", "trainable": true, "filters": 1392, "kernel_size": [1, 1], "strides": [1, 1], "padding": "same", "data_format": "channels_last", "dilation_rate": [1, 1], "activation": "linear", "use_bias": true, "kernel_initializer": {"class_name": "EfficientConv2DKernelInitializer", "config": {}}, "bias_initializer": {"class_name": "Zeros", "config": {}}, "kernel_regularizer": null, "bias_regularizer": null, "activity_regularizer": null, "kernel_constraint": null, "bias_constraint": null}, "inbound_nodes": [[["swish_68", 0, 0, {}]]]}, {"name": "activation_23", "class_name": "Activation", "config": {"name": "activation_23", "trainable": true, "activation": "sigmoid"}, "inbound_nodes": [[["conv2d_90", 0, 0, {}]]]}, {"name": "multiply_23", "class_name": "Multiply", "config": {"name": "multiply_23", "trainable": true}, "inbound_nodes": [[["activation_23", 0, 0, {}], ["swish_67", 0, 0, {}]]]}, {"name": "conv2d_91", "class_name": "Conv2D", "config": {"name": "conv2d_91", "trainable": true, "filters": 232, "kernel_size": [1, 1], "strides": [1, 1], "padding": "same", "data_format": "channels_last", "dilation_rate": [1, 1], "activation": "linear", "use_bias": false, "kernel_initializer": {"class_name": "EfficientConv2DKernelInitializer", "config": {}}, "bias_initializer": {"class_name": "Zeros", "config": {}}, "kernel_regularizer": null, "bias_regularizer": null, "activity_regularizer": null, "kernel_constraint": null, "bias_constraint": null}, "inbound_nodes": [[["multiply_23", 0, 0, {}]]]}, {"name": "batch_normalization_68", "class_name": "BatchNormalization", "config": {"name": "batch_normalization_68", "trainable": true, "axis": -1, "momentum": 0.99, "epsilon": 0.001, "center": true, "scale": true, "beta_initializer": {"class_name": "Zeros", "config": {}}, "gamma_initializer": {"class_name": "Ones", "config": {}}, "moving_mean_initializer": {"class_name": "Zeros", "config": {}}, "moving_variance_initializer": {"class_name": "Ones", "config": {}}, "beta_regularizer": null, "gamma_regularizer": null, "beta_constraint": null, "gamma_constraint": null}, "inbound_nodes": [[["conv2d_91", 0, 0, {}]]]}, {"name": "drop_connect_17", "class_name": "DropConnect", "config": {"name": "drop_connect_17", "trainable": true, "drop_connect_rate": 0.28750000000000003}, "inbound_nodes": [[["batch_normalization_68", 0, 0, {}]]]}, {"name": "add_17", "class_name": "Add", "config": {"name": "add_17", "trainable": true}, "inbound_nodes": [[["drop_connect_17", 0, 0, {}], ["add_16", 0, 0, {}]]…
s": [1, 1], "padding": "same", "data_format": "channels_last", "dilation_rate": [1, 1], "activation": "linear", "use_bias": false, "kernel_initializer": {"class_name": "EfficientConv2DKernelInitializer", "config": {}}, "bias_initializer": {"class_name": "Zeros", "config": {}}, "kernel_regularizer": null, "bias_regularizer": null, "activity_regularizer": null, "kernel_constraint": null, "bias_constraint": null}, "inbound_nodes": [[["multiply_25", 0, 0, {}]]]}, {"name": "batch_normalization_74", "class_name": "BatchNormalization", "config": {"name": "batch_normalization_74", "trainable": true, "axis": -1, "momentum": 0.99, "epsilon": 0.001, "center": true, "scale": true, "beta_initializer": {"class_name": "Zeros", "config": {}}, "gamma_initializer": {"class_name": "Ones", "config": {}}, "moving_mean_initializer": {"class_name": "Zeros", "config": {}}, "moving_variance_initializer": {"class_name": "Ones", "config": {}}, "beta_regularizer": null, "gamma_regularizer": null, "beta_constraint": null, "gamma_constraint": null}, "inbound_nodes": [[["conv2d_99", 0, 0, {}]]]}, {"name": "conv2d_100", "class_name": "Conv2D", "config": {"name": "conv2d_100", "trainable": true, "filters": 2304, "kernel_size": [1, 1], "strides": [1, 1], "padding": "same", "data_format": "channels_last", "dilation_rate": [1, 1], "activation": "linear", "use_bias": false, "kernel_initializer": {"class_name": "EfficientConv2DKernelInitializer", "config": {}}, "bias_initializer": {"class_name": "Zeros", "config": {}}, "kernel_regularizer": null, "bias_regularizer": null, "activity_regularizer": null, "kernel_constraint": null, "bias_constraint": null}, "inbound_nodes": [[["batch_normalization_74", 0, 0, {}]]]}, {"name": "batch_normalization_75", "class_name": "BatchNormalization", "config": {"name": "batch_normalization_75", "trainable": true, "axis": -1, "momentum": 0.99, "epsilon": 0.001, "center": true, "scale": true, "beta_initializer": {"class_name": "Zeros", "config": {}}, "gamma_initializer": {"class_name": "Ones", "config": {}}, "moving_mean_initializer": {"class_name": "Zeros", "config": {}}, "moving_variance_initializer": {"class_name": "Ones", "config": {}}, "beta_regularizer": null, "gamma_regularizer": null, "beta_constraint": null, "gamma_constraint": null}, "inbound_nodes": [[["conv2d_100", 0, 0, {}]]]}, {"name": "swish_75", "class_name": "Swish", "config": {"name": "swish_75", "trainable": true}, "inbound_nodes": [[["batch_normalization_75", 0, 0, {}]]]}, {"name": "depthwise_conv2d_26", "class_name": "DepthwiseConv2D", "config": {"name": "depthwise_conv2d_26", "trainable": true, "kernel_size": [3, 3], "strides": [1, 1], "padding": "same", "data_format": "channels_last", "dilation_rate": [1, 1], "activation": "linear", "use_bias": false, "bias_initializer": {"class_name": "Zeros", "config": {}}, "bias_regularizer": null, "activity_regularizer": null, "bias_constraint": null, "depth_multiplier": 1, "depthwise_initializer": {"class_name": "EfficientConv2DKernelInitializer", "config": {}}, "depthwise_regularizer": null, "depthwise_constraint": null}, "inbound_nodes": [[["swish_75", 0, 0, {}]]]}, {"name": "batch_normalization_76", "class_name": "BatchNormalization", "config": {"name": "batch_normalization_76", "trainable": true, "axis": -1, "momentum": 0.99, "epsilon": 0.001, "center": true, "scale": true, "beta_initializer": {"class_name": "Zeros", "config": {}}, "gamma_initializer": {"class_name": "Ones", "config": {}}, "moving_mean_initializer": {"class_name": "Zeros", "config": {}}, "moving_variance_initializer": {"class_name": "Ones", "config": {}}, "beta_regularizer": null, "gamma_regularizer": null, "beta_constraint": null, "gamma_constraint": null}, "inbound_nodes": [[["depthwise_conv2d_26", 0, 0, {}]]]}, {"name": "swish_76", "class_name": "Swish", "config": {"name": "swish_76", "trainable": true}, "inbound_nodes": [[["batch_normalization_76", 0, 0, {}]]]}, {"name": "lambda_26", "class_name": "Lambda", "config": {"name": "lambda_26", "trainable": true, "function": ["4wEAAAAAAAAAAQAAAAUAAAATAAAAcxAAAAB0AGoBfACIAGQBZAKNA1MAKQNOVCkC2gRheGlz2ghr\nZWVwZGltcykC2gFL2gRtZWFuKQHaAWEpAdoMc3BhdGlhbF9kaW1zqQD6UC9ob21lL3BhdWwvYW5h\nY29uZGEzL2VudnMvR1NPQy9saWIvcHl0aG9uMy43L3NpdGUtcGFja2FnZXMvZWZmaWNpZW50bmV0\nL21vZGVsLnB52gg8bGFtYmRhPlcAAADzAAAAAA==\n", null, [[1, 2]]], "function_type": "lambda", "output_shape": null, "output_shape_type": "raw", "arguments": {}}, "inbound_nodes": [[["swish_76", 0, 0, {}]]]}, {"name": "conv2d_101", "class_name": "Conv2D", "config": {"name": "conv2d_101", "trainable": true, "filters": 96, "kernel_size": [1, 1], "strides": [1, 1], "padding": "same", "data_format": "channels_last", "dilation_rate": [1, 1], "activation": "linear", "use_bias": true, "kernel_initializer": {"class_name": "EfficientConv2DKernelInitializer", "config": {}}, "bias_initializer": {"class_name": "Zeros", "config": {}}, "kernel_regularizer": null, "bias_regularizer": null, "activity_regularizer": null, "kernel_constraint": null, "bias_constraint": null}, "inbound_nodes": [[["lambda_26", 0, 0, {}]]]}, {"name": "swish_77", "class_name": "Swish", "config": {"name": "swish_77", "trainable": true}, "inbound_nodes": [[["conv2d_101", 0, 0, {}]]]}, {"name": "conv2d_102", "class_name": "Conv2D", "config": {"name": "conv2d_102", "trainable": true, "filters": 2304, "kernel_size": [1, 1], "strides": [1, 1], "padding": "same", "data_format": "channels_last", "dilation_rate": [1, 1], "activation": "linear", "use_bias": true, "kernel_initializer": {"class_name": "EfficientConv2DKernelInitializer", "config": {}}, "bias_initializer": {"class_name": "Zeros", "config": {}}, "kernel_regularizer": null, "bias_regularizer": null, "activity_regularizer": null, "kernel_constraint": null, "bias_constraint": null}, "inbound_nodes": [[["swish_77", 0, 0, {}]]]}, {"name": "activation_26", "class_name": "Activation", "config": {"name": "activation_26", "trainable": true, "activation": "sigmoid"}, "inbound_nodes": [[["conv2d_102", 0, 0, {}]]]}, {"name": "multiply_26", "class_name": "Multiply", "config": {"name": "multiply_26", "trainable": true}, "inbound_nodes": [[["activation_26", 0, 0, {}], ["swish_76", 0, 0, {}]]]}, {"name": "conv2d_103", "class_name": "Conv2D", "config": {"name": "conv2d_103", "trainable": true, "filters": 384, "kernel_size": [1, 1], "strides": [1, 1], "padding": "same", "data_format": "channels_last", "dilation_rate": [1, 1], "activation": "linear", "use_bias": false, "kernel_initializer": {"class_name": "EfficientConv2DKernelInitializer", "config": {}}, "bias_initializer": {"class_name": "Zeros", "config": {}}, "kernel_regularizer": null, "bias_regularizer": null, "activity_regularizer": null, "kernel_constraint": null, "bias_constraint": null}, "inbound_nodes": [[["multiply_26", 0, 0, {}]]]}, {"name": "batch_normalization_77", "class_name": "BatchNormalization", "config": {"name": "batch_normalization_77", "trainable": true, "axis": -1, "momentum": 0.99, "epsilon": 0.001, "center": true, "scale": true, "beta_initializer": {"class_name": "Zeros", "config": {}}, "gamma_initializer": {"class_name": "Ones", "config": {}}, "moving_mean_initializer": {"class_name": "Zeros", "config": {}}, "moving_variance_initializer": {"class_name": "Ones", "config": {}}, "beta_regularizer": null, "gamma_regularizer": null, "beta_constraint": null, "gamma_constraint": null}, "inbound_nodes": [[["conv2d_103", 0, 0, {}]]]}, {"name": "drop_connect_19", "class_name": "DropConnect", "config": {"name": "drop_connect_19", "trainable": true, "drop_connect_rate": 0.325}, "inbound_nodes": [[["batch_normalization_77", 0, 0, {}]]]}, {"name": "add_19", "class_name": "Add", "config": {"name": "add_19", "trainable": true}, "inbound_nodes": [[["drop_connect_19", 0, 0, {}], ["batch_normalization_74", 0, 0, {}]]]}, {"name": "conv2d_104", "class_name": "Conv2D", "config": {"name": "conv2d_104", "trainable": true, "filters": 1536, "kernel_size": [1, 1], "strides": [1, 1], "padding": "same", "data_format": "channels_last", "dilation_rate": [1, 1], "activation": "linear", "use_bias": false, "kernel_initializer": {"class_name": "EfficientConv2DKernelInitializer", "config": {}}, "bias_initializer": {"class_name": "Zeros", "config": {}}, "kernel_regularizer": null, "bias_regularizer": null, "activity_regularizer": null, "kernel_constraint": null, "bias_constraint": null}, "inbound_nodes": [[["add_19", 0, 0, {}]]]}, {"name": "batch_normalization_78", "class_name": "BatchNormalization", "config": {"name": "batch_normalization_78", "trainable": true, "axis": -1, "momentum": 0.99, "epsilon": 0.001, "center": true, "scale": true, "beta_initializer": {"class_name": "Zeros", "config": {}}, "gamma_initializer": {"class_name": "Ones", "config": {}}, "moving_mean_initializer": {"class_name": "Zeros", "config": {}}, "moving_variance_initializer": {"class_name": "Ones", "config": {}}, "beta_regularizer": null, "gamma_regularizer": null, "beta_constraint": null, "gamma_constraint": null}, "inbound_nodes": [[["conv2d_104", 0, 0, {}]]]}, {"name": "swish_78", "class_name": "Swish", "config": {"name": "swish_78", "trainable": true}, "inbound_nodes": [[["batch_normalization_78", 0, 0, {}]]]}, {"name": "global_average_pooling2d_1", "class_name": "GlobalAveragePooling2D", "config": {"name": "global_average_pooling2d_1", "trainable": true, "data_format": "channels_last"}, "inbound_nodes": [[["swish_78", 0, 0, {}]]]}, {"name": "dropout_1", "class_name": "Dropout", "config": {"name": "dropout_1", "trainable": true, "rate": 0.3, "noise_shape": null, "seed": null}, "inbound_nodes": [[["global_average_pooling2d_1", 0, 0, {}]]]}, {"name": "dense_1", "class_name": "Dense", "config": {"name": "dense_1", "trainable": true, "units": 1000, "activation": "linear", "use_bias": true, "kernel_initializer": {"class_name": "EfficientDenseKernelInitializer", "config": {}}, "bias_initializer": {"class_name": "Zeros", "config": {}}, "kernel_regularizer": null, "bias_regularizer": null, "activity_regularizer": null, "kernel_constraint": null, "bias_constraint": null}, "inbound_nodes": [[["dropout_1", 0, 0, {}]]]}, {"name": "activation_27", "class_name": "Activation", "config": {"name": "activation_27", "trainable": true, "activation": "softmax"}, "inbound_nodes": [[["dense_1", 0, 0, {}]]]}], "input_layers": [["input_1", 0, 0]], "output_layers": [["activation_27", 0, 0]]}}}, "weightsManifest": [{"paths": ["group1-shard1of12.bin", "group1-shard2of12.bin", "group1-shard3of12.bin", "group1-shard4of12.bin", "group1-shard5of12.bin", "group1-shard6of12.bin", "group1-shard7of12.bin", "group1-shard8of12.bin", "group1-shard9of12.bin", "group1-shard10of12.bin", "group1-shard11of12.bin", "group1-shard12of12.bin"], "weights": [{"name": "batch_normalization_1/gamma", "shape": [40], "dtype": "float32"}, {"name": "batch_normalization_1/beta", "shape": [40], "dtype": "float32"}, {"name": "batch_normalization_1/moving_mean", "shape": [40], "dtype": "float32"}, {"name": "batch_normalization_1/moving_variance", "shape": [40], "dtype": "float32"}, {"name": "batch_normalization_10/gamma", "shape": [192], "dtype": "float32"}, {"name": "batch_normalization_10/beta", "shape": [192], "dtype": "float32"}, {"name": "batch_normalization_10/moving_mean", "shape": [192], "dtype": "float32"}, {"name": "batch_normalization_10/moving_variance", "shape": [192], "dtype": "float32"}, {"name": "batch_normalization_11/gamma", "shape": [32], "dtype": "float32"}, {"name": "batch_normalization_11/beta", "shape": [32], "dtype": "float32"}, {"name": "batch_normalization_11/moving_mean", "shape": [32], "dtype": "float32"}, {"name": "batch_normalization_11/moving_variance", "shape": [32], "dtype": "float32"}, {"name": "batch_normalization_12/gamma", "shape": [192], "dtype": "float32"}, {"name": "batch_normalization_12/beta", "shape": [192], "dtype": "float32"}, {"name": "batch_normalization_12/moving_mean", "shape": [192], "dtype": "float32"}, {"name": "batch_normalization_12/moving_variance", "shape": [192], "dtype": "float32"}, {"name": "batch_normalization_13/gamma", "shape": [192], "dtype": "float32"}, {"name": "batch_normalization_13/beta", "shape": [192], "dtype": "float32"}, {"name": "batch_normalization_13/moving_mean", "shape": [192], "dtype": "float32"}, {"name": "batch_normalization_13/moving_variance", "shape": [192], "dtype": "float32"}, {"name": "batch_normalization_14/gamma", "shape": [32], "dtype": "float32"}, {"name": "batch_normalization_14/beta", "shape": [32], "dtype": "float32"}, {"name": "batch_normalization_14/moving_mean", "shape": [32], "dtype": "float32"}, {"name": "batch_normalization_14/moving_variance", "shape": [32], "dtype": "float32"}, {"name": "batch_normalization_15/gamma", "shape": [192], "dtype": "float32"}, {"name": "batch_normalization_15/beta", "shape": [192], "dtype": "float32"}, {"name": "batch_normalization_15/moving_mean", "shape": [192], "dtype": "float32"}, {"name": "batch_normalization_15/moving_variance", "shape": [192], "dtype": "float32"}, {"name": "batch_normalization_16/gamma", "shape": [192], "dtype": "float32"}, {"name": "batch_normalization_16/beta", "shape": [192], "dtype": "float32"}, {"name": "batch_normalization_16/moving_mean", "shape": [192], "dtype": "float32"}, {"name": "batch_normalization_16/moving_variance", "shape": [192], "dtype": "float32"}, {"name": "batch_normalization_17/gamma", "shape": [48], "dtype": "float32"}, {"name": "batch_normalization_17/beta", "shape": [48], "dtype": "float32"}, {"name": "batch_normalization_17/moving_mean", "shape": [48], "dtype": "float32"}, {"name": "batch_normalization_17/moving_variance", "shape": [48], "dtype": "float32"}, {"name": "batch_normalization_18/gamma", "shape": [288], "dtype": "float32"}, {"name": "batch_normalization_18/beta", "shape": [288], "dtype": "float32"}, {"name": "batch_normalization_18/moving_mean", "shape": [288], "dtype": "float32"}, {"name": "batch_normalization_18/moving_variance", "shape": [288], "dtype": "float32"}, {"name": "batch_normalization_19/gamma", "shape": [288], "dtype": "float32"}, {"name": "batch_normalization_19/beta", "shape": [288], "dtype": "float32"}, {"name": "batch_normalization_19/moving_mean", "shape": [288], "dtype": "float32"}, {"name": "batch_normalization_19/moving_variance", "shape": [288], "dtype": "float32"}, {"name": "batch_normalization_2/gamma", "shape": [40], "dtype": "float32"}, {"name": "batch_normalization_2/beta", "shape": [40], "dtype": "float32"}, {"name": "batch_normalization_2/moving_mean", "shape": [40], "dtype": "float32"}, {"name": "batch_normalization_2/moving_variance", "shape": [40], "dtype": "float32"}, {"name": "batch_normalization_20/gamma", "shape": [48], "dtype": "float32"}, {"name": "batch_normalization_20/beta", "shape": [48], "dtype": "float32"}, {"name": "batch_normalization_20/moving_mean", "shape": [48], "dtype": "float32"}, {"name": "batch_normalization_20/moving_variance", "shape": [48], "dtype": "float32"}, {"name": "batch_normalization_21/gamma", "shape": [288], "dtype": "float32"}, {"name": "batch_normalization_21/beta", "shape": [288], "dtype": "float32"}, {"name": "batch_normalization_21/moving_mean", "shape": [288], "dtype": "float32"}, {"name": "batch_normalization_21/moving_variance", "shape": [288], "dtype": "float32"}, {"name": "batch_normalization_22/gamma", "shape": [288], "dtype": "float32"}, {"name": "batch_normalization_22/beta", "shape": [288], "dtype": "float32"}, {"name": "batch_normalization_22/moving_mean", "shape": [288], "dtype": "float32"}, {"name": "batch_normalization_22/moving_variance", "shape": [288], "dtype": "float32"}, {"name": "batch_normalization_23/gamma", "shape": [48], "dtype": "float32"}, {"name": "batch_normalization_23/beta", "shape": [48], "dtype": "float32"}, {"name": "batch_normalization_23/moving_mean", "shape": [48], "dtype": "float32"}, {"name": "batch_normalization_23/moving_variance", "shape": [48], "dtype": "float32"}, {"name": "batch_normalization_24/gamma", "shape": [288], "dtype": "float32"}, {"name": "batch_normalization_24/beta", "shape": [288], "dtype": "float32"}, {"name": "batch_normalization_24/moving_mean", "shape": [288], "dtype": "float32"}, {"name": "batch_normalization_24/moving_variance", "shape": [288], "dtype": "float32"}, {"name": "batch_normalization_25/gamma", "shape": [288], "dtype": "float32"}, {"name": "batch_normalization_25/beta", "shape": [288], "dtype": "float32"}, {"name": "batch_normalization_25/moving_mean", "shape": [288], "dtype": "float32"}, {"name": "batch_normalization_25/moving_variance", "shape": [288], "dtype": "float32"}, {"name": "batch_normalization_26/gamma", "shape": [96], "dtype": "float32"}, {"name": "batch_normalization_26/beta", "shape": [96], "dtype": "float32"}, {"name": "batch_normalization_26/moving_mean", "shape": [96], "dtype": "float32"}, {"name": "batch_normalization_26/moving_variance", "shape": [96], "dtype": "float32"}, {"name": "batch_normalization_27/gamma", "shape": [576], "dtype": "float32"}, {"name": "batch_normalization_27/beta", "shape": [576], "dtype": "float32"}, {"name": "batch_normalization_27/moving_mean", "shape": [576], "dtype": "float32"}, {"name": "batch_normalization_27/moving_variance", "shape": [576], "dtype": "float32"}, {"name": "batch_normalization_28/gamma", "shape": [576], "dtype": "float32"}, {"name": "batch_normalization_28/beta", "shape": [576], "dtype": "float32"}, {"name": "batch_normalization_28/moving_mean", "shape": [576], "dtype": "float32"}, {"name": "batch_normalization_28/moving_variance", "shape": [576], "dtype": "float32"}, {"name": "batch_normalization_29/gamma", "shape": [96], "dtype": "float32"}, {"name": "batch_normalization_29/beta", "shape": [96], "dtype": "float32"}, {"name": "batch_normalization_29/moving_mean", "shape": [96], "dtype": "float32"}, {"name": "batch_normalization_29/moving_variance", "shape": [96], "dtype": "float32"}, {"name": "batch_normalization_3/gamma", "shape": [24], "dtype": "float32"}, {"name": "batch_normalization_3/beta", "shape": [24], "dtype": "float32"}, {"name": "batch_normalization_3/moving_mean", "shape": [24], "dtype": "float32"}, {"name": "batch_normalization_3/moving_variance", "shape": [24], "dtype": "float32"}, {"name": "batch_normalization_30/gamma", "shape": [576], "dtype": "float32"}, {"name": "batch_normalization_30/beta", "shape": [576], "dtype": "float32"}, {"name": "batch_normalization_30/moving_mean", "shape": [576], "dtype": "float32"}, {"name": "batch_normalization_30/moving_variance", "shape": [576], "dtype": "float32"}, {"name": "batch_normalization_31/gamma", "shape": [576], "dtype": "float32"}, {"name": "batch_normalization_31/beta", "shape": [576], "dtype": "float32"}, {"name": "batch_normalization_31/moving_mean", "shape": [576], "dtype": "float32"}, {"name": "batch_normalization_31/moving_variance", "shape": [576], "dtype": "float32"}, {"name": "batch_normalization_32/gamma", "shape": [96], "dtype": "float32"}, {"name": "batch_normalization_32/beta", "shape": [96], "dtype": "float32"}, {"name": "batch_normalization_32/moving_mean", "shape": [96], "dtype": "float32"}, {"name": "batch_normalization_32/moving_variance", "shape": [96], "dtype": "float32"}, {"name": "batch_normalization_33/gamma", "shape": [576], "dtype": "float32"}, {"name": "batch_normalization_33/beta", "shape": [576], "dtype": "float32"}, {"name": "batch_normalization_33/moving_mean", "shape": [576], "dtype": "float32"}, {"name": "batch_normalization_33/moving_variance", "shape": [576], "dtype": "float32"}, {"name": "batch_normalization_34/gamma", "shape": [576], "dtype": "float32"}, {"name": "batch_normalization_34/beta", "shape": [576], "dtype": "float32"}, {"name": "batch_normalization_34/moving_mean", "shape": [576], "dtype": "float32"}, {"name": "batch_normalization_34/moving_variance", "shape": [576], "dtype": "float32"}, {"name": "batch_normalization_35/gamma", "shape": [96], "dtype": "float32"}, {"name": "batch_normalization_35/beta", "shape": [96], "dtype": "float32"}, {"name": "batch_normalization_35/moving_mean", "shape": [96], "dtype": "float32"}, {"name": "batch_normalization_35/moving_variance", "shape": [96], "dtype": "float32"}, {"name": "batch_normalization_36/gamma", "shape": [576], "dtype": "float32"}, {"name": "batch_normalization_36/beta", "shape": [576], "dtype": "float32"}, {"name": "batch_normalization_36/moving_mean", "shape": [576], "dtype": "float32"}, {"name": "batch_normalization_36/moving_variance", "shape": [576], "dtype": "float32"}, {"name": "batch_normalization_37/gamma", "shape": [576], "dtype": "float32"}, {"name": "batch_normalization_37/beta", "shape": [576], "dtype": "float32"}, {"name": "batch_normalization_37/moving_mean", "shape": [576], "dtype": "float32"}, {"name": "batch_normalization_37/moving_variance", "shape": [576], "dtype": "float32"}, {"name": "batch_normalization_38/gamma", "shape": [96], "dtype": "float32"}, {"name": "batch_normalization_38/beta", "shape": [96], "dtype": "float32"}, {"name": "batch_normalization_38/moving_mean", "shape": [96], "dtype": "float32"}, {"name": "batch_normalization_38/moving_variance", "shape": [96], "dtype": "float32"}, {"name": "batch_normalization_39/gamma", "shape": [576], "dtype": "float32"}, {"name": "batch_normalization_39/beta", "shape": [576], "dtype": "float32"}, {"name": "batch_normalization_39/moving_mean", "shape": [576], "dtype": "float32"}, {"name": "batch_normalization_39/moving_variance", "shape": [576], "dtype": "float32"}, {"name": "batch_normalization_4/gamma", "shape": [24], "dtype": "float32"}, {"name": "batch_normalization_4/beta", "shape": [24], "dtype": "float32"}, {"name": "batch_normalization_4/moving_mean", "shape": [24], "dtype": "float32"}, {"name": "batch_normalization_4/moving_variance", "shape": [24], "dtype": "float32"}, {"name": "batch_normalization_40/gamma", "shape": [576], "dtype": "float32"}, {"name": "batch_normalization_40/beta", "shape": [576], "dtype": "float32"}, {"name": "batch_normalization_40/moving_mean", "shape": [576], "dtype": "float32"}, {"name": "batch_normalization_40/moving_variance", "shape": [576], "dtype": "float32"}, {"name": "batch_normalization_41/gamma", "shape": [136], "dtype": "float32"}, {"name": "batch_normalization_41/beta", "shape": [136], "dtype": "float32"}, {"name": "batch_normalization_41/moving_mean", "shape": [136], "dtype": "float32"}, {"name": "batch_normalization_41/moving_variance", "shape": [136], "dtype": "float32"}, {"name": "batch_normalization_42/gamma", "shape": [816], "dtype": "float32"}, {"name": "batch_normalization_42/beta", "shape": [816], "dtype": "float32"}, {"name": "batch_normalization_42/moving_mean", "shape": [816], "dtype": "float32"}, {"name": "batch_normalization_42/moving_variance", "shape": [816], "dtype": "float32"}, {"name": "batch_normalization_43/gamma", "shape": [816], "dtype": "float32"}, {"name": "batch_normalization_43/beta", "shape": [816], "dtype": "float32"}, {"name": "batch_normalization_43/moving_mean", "shape": [816], "dtype": "float32"}, {"name": "batch_normalization_43/moving_variance", "shape": [816], "dtype": "float32"}, {"name": "batch_normalization_44/gamma", "shape": [136], "dtype": "float32"}, {"name": "batch_normalization_44/beta", "shape": [136], "dtype": "float32"}, {"name": "batch_normalization_44/moving_mean", "shape": [136], "dtype": "float32"}, {"name": "batch_normalization_44/moving_variance", "shape": [136], "dtype": "float32"}, {"name": "batch_normalization_45/gamma", "shape": [816], "dtype": "float32"}, {"name": "batch_normalization_45/beta", "shape": [816], "dtype": "float32"}, {"name": "batch_normalization_45/moving_mean", "shape": [816], "dtype": "float32"}, {"name": "batch_normalization_45/moving_variance", "shape": [816], "dtype": "float32"}, {"name": "batch_normalization_46/gamma", "shape": [816], "dtype": "float32"}, {"name": "batch_normalization_46/beta", "shape": [816], "dtype": "float32"}, {"name": "batch_normalization_46/moving_mean", "shape": [816], "dtype": "float32"}, {"name": "batch_normalization_46/moving_variance", "shape": [816], "dtype": "float32"}, {"name": "batch_normalization_47/gamma", "shape": [136], "dtype": "float32"}, {"name": "batch_normalization_47/beta", "shape": [136], "dtype": "float32"}, {"name": "batch_normalization_47/moving_mean", "shape": [136], "dtype": "float32"}, {"name": "batch_normalization_47/moving_variance", "shape": [136], "dtype": "float32"}, {"name": "batch_normalization_48/gamma", "shape": [816], "dtype": "float32"}, {"name": "batch_normalization_48/beta", "shape": [816], "dtype": "float32"}, {"name": "batch_normalization_48/moving_mean", "shape": [816], "dtype": "float32"}, {"name": "batch_normalization_48/moving_variance", "shape": [816], "dtype": "float32"}, {"name": "batch_normalization_49/gamma", "shape": [816], "dtype": "float32"}, {"name": "batch_normalization_49/beta", "shape": [816], "dtype": "float32"}, {"name": "batch_normalization_49/moving_mean", "shape": [816], "dtype": "float32"}, {"name": "batch_normalization_49/moving_variance", "shape": [816], "dtype": "float32"}, {"name": "batch_normalization_5/gamma", "shape": [24], "dtype": "float32"}, {"name": "batch_normalization_5/beta", "shape": [24], "dtype": "float32"}, {"name": "batch_normalization_5/moving_mean", "shape": [24], "dtype": "float32"}, {"name": "batch_normalization_5/moving_variance", "shape": [24], "dtype": "float32"}, {"name": "batch_normalization_50/gamma", "shape": [136], "dtype": "float32"}, {"name": "batch_normalization_50/beta", "shape": [136], "dtype": "float32"}, {"name": "batch_normalization_50/moving_mean", "shape": [136], "dtype": "float32"}, {"name": "batch_normalization_50/moving_variance", "shape": [136], "dtype": "float32"}, {"name": "batch_normalization_51/gamma", "shape": [816], "dtype": "float32"}, {"name": "batch_normalization_51/beta", "shape": [816], "dtype": "float32"}, {"name": "batch_normalization_51/moving_mean", "shape": [816], "dtype": "float32"}, {"name": "batch_normalization_51/moving_variance", "shape": [816], "dtype": "float32"}, {"name": "batch_normalization_52/gamma", "shape": [816], "dtype": "float32"}, {"name": "batch_normalization_52/beta", "shape": [816], "dtype": "float32"}, {"name": "batch_normalization_52/moving_mean", "shape": [816], "dtype": "float32"}, {"name": "batch_normalization_52/moving_variance", "shape": [816], "dtype": "float32"}, {"name": "batch_normalization_53/gamma", "shape": [136], "dtype": "float32"}, {"name": "batch_normalization_53/beta", "shape": [136], "dtype": "float32"}, {"name": "batch_normalization_53/moving_mean", "shape": [136], "dtype": "float32"}, {"name": "batch_normalization_53/moving_variance", "shape": [136], "dtype": "float32"}, {"name": "batch_normalization_54/gamma", "shape": [816], "dtype": "float32"}, {"name": "batch_normalization_54/beta", "shape": [816], "dtype": "float32"}, {"name": "batch_normalization_54/moving_mean", "shape": [816], "dtype": "float32"}, {"name": "batch_normalization_54/moving_variance", "shape": [816], "dtype": "float32"}, {"name": "batch_normalization_55/gamma", "shape": [816], "dtype": "float32"}, {"name": "batch_normalization_55/beta", "shape": [816], "dtype": "float32"}, {"name": "batch_normalization_55/moving_mean", "shape": [816], "dtype": "float32"}, {"name": "batch_normalization_55/moving_variance", "shape": [816], "dtype": "float32"}, {"name": "batch_normalization_56/gamma", "shape": [232], "dtype": "float32"}, {"name": "batch_normalization_56/beta", "shape": [232], "dtype": "float32"}, {"name": "batch_normalization_56/moving_mean", "shape": [232], "dtype": "float32"}, {"name": "batch_normalization_56/moving_variance", "shape": [232], "dtype": "float32"}, {"name": "batch_normalization_57/gamma", "shape": [1392], "dtype": "float32"}, {"name": "batch_normalization_57/beta", "shape": [1392], "dtype": "float32"}, {"name": "batch_normalization_57/moving_mean", "shape": [1392], "dtype": "float32"}, {"name": "batch_normalization_57/moving_variance", "shape": [1392], "dtype": "float32"}, {"name": "batch_normalization_58/gamma", "shape": [1392], "dtype": "float32"}, {"name": "batch_normalization_58/beta", "shape": [1392], "dtype": "float32"}, {"name": "batch_normalization_58/moving_mean", "shape": [1392], "dtype": "float32"}, {"name": "batch_normalization_58/moving_variance", "shape": [1392], "dtype": "float32"}, {"name": "batch_normalization_59/gamma", "shape": [232], "dtype": "float32"}, {"name": "batch_normalization_59/beta", "shape": [232], "dtype": "float32"}, {"name": "batch_normalization_59/moving_mean", "shape": [232], "dtype": "float32"}, {"name": "batch_normalization_59/moving_variance", "shape": [232], "dtype": "float32"}, {"name": "batch_normalization_6/gamma", "shape": [144], "dtype": "float32"}, {"name": "batch_normalization_6/beta", "shape": [144], "dtype": "float32"}, {"name": "batch_normalization_6/moving_mean", "shape": [144], "dtype": "float32"}, {"name": "batch_normalization_6/moving_variance", "shape": [144], "dtype": "float32"}, {"name": "batch_normalization_60/gamma", "shape": [1392], "dtype": "float32"}, {"name": "batch_normalization_60/beta", "shape": [1392], "dtype": "float32"}, {"name": "batch_normalization_60/moving_mean", "shape": [1392], "dtype": "float32"}, {"name": "batch_normalization_60/moving_variance", "shape": [1392], "dtype": "float32"}, {"name": "batch_normalization_61/gamma", "shape": [1392], "dtype": "float32"}, {"name": "batch_normalization_61/beta", "shape": [1392], "dtype": "float32"}, {"name": "batch_normalization_61/moving_mean", "shape": [1392], "dtype": "float32"}, {"name": "batch_normalization_61/moving_variance", "shape": [1392], "dtype": "float32"}, {"name": "batch_normalization_62/gamma", "shape": [232], "dtype": "float32"}, {"name": "batch_normalization_62/beta", "shape": [232], "dtype": "float32"}, {"name": "batch_normalization_62/moving_mean", "shape": [232], "dtype": "float32"}, {"name": "batch_normalization_62/moving_variance", "shape": [232], "dtype": "float32"}, {"name": "batch_normalization_63/gamma", "shape": [1392], "dtype": "float32"}, {"name": "batch_normalization_63/beta", "shape": [1392], "dtype": "float32"}, {"name": "batch_normalization_63/moving_mean", "shape": [1392], "dtype": "float32"}, {"name": "batch_normalization_63/moving_variance", "shape": [1392], "dtype": "float32"}, {"name": "batch_normalization_64/gamma", "shape": [1392], "dtype": "float32"}, {"name": "batch_normalization_64/beta", "shape": [1392], "dtype": "float32"}, {"name": "batch_normalization_64/moving_mean", "shape": [1392], "dtype": "float32"}, {"name": "batch_normalization_64/moving_variance", "shape": [1392], "dtype": "float32"}, {"name": "batch_normalization_65/gamma", "shape": [232], "dtype": "float32"}, {"name": "batch_normalization_65/beta", "shape": [232], "dtype": "float32"}, {"name": "batch_normalization_65/moving_mean", "shape": [232], "dtype": "float32"}, {"name": "batch_normalization_65/moving_variance", "shape": [232], "dtype": "float32"}, {"name": "batch_normalization_66/gamma", "shape": [1392], "dtype": "float32"}, {"name": "batch_normalization_66/beta", "shape": [1392], "dtype": "float32"}, {"name": "batch_normalization_66/moving_mean", "shape": [1392], "dtype": "float32"}, {"name": "batch_normalization_66/moving_variance", "shape": [1392], "dtype": "float32"}, {"name": "batch_normalization_67/gamma", "shape": [1392], "dtype": "float32"}, {"name": "batch_normalization_67/beta", "shape": [1392], "dtype": "float32"}, {"name": "batch_normalization_67/moving_mean", "shape": [1392], "dtype": "float32"}, {"name": "batch_normalization_67/moving_variance", "shape": [1392], "dtype": "float32"}, {"name": "batch_normalization_68/gamma", "shape": [232], "dtype": "float32"}, {"name": "batch_normalization_68/beta", "shape": [232], "dtype": "float32"}, {"name": "batch_normalization_68/moving_mean", "shape": [232], "dtype": "float32"}, {"name": "batch_normalization_68/moving_variance", "shape": [232], "dtype": "float32"}, {"name": "batch_normalization_69/gamma", "shape": [1392], "dtype": "float32"}, {"name": "batch_normalization_69/beta", "shape": [1392], "dtype": "float32"}, {"name": "batch_normalization_69/moving_mean", "shape": [1392], "dtype": "float32"}, {"name": "batch_normalization_69/moving_variance", "shape": [1392], "dtype": "float32"}, {"name": "batch_normalization_7/gamma", "shape": [144], "dtype": "float32"}, {"name": "batch_normalization_7/beta", "shape": [144], "dtype": "float32"}, {"name": "batch_normalization_7/moving_mean", "shape": [144], "dtype": "float32"}, {"name": "batch_normalization_7/moving_variance", "shape": [144], "dtype": "float32"}, {"name": "batch_normalization_70/gamma", "shape": [1392], "dtype": "float32"}, {"name": "batch_normalization_70/beta", "shape": [1392], "dtype": "float32"}, {"name": "batch_normalization_70/moving_mean", "shape": [1392], "dtype": "float32"}, {"name": "batch_normalization_70/moving_variance", "shape": [1392], "dtype": "float32"}, {"name": "batch_normalization_71/gamma", "shape": [232], "dtype": "float32"}, {"name": "batch_normalization_71/beta", "shape": [232], "dtype": "float32"}, {"name": "batch_normalization_71/moving_mean", "shape": [232], "dtype": "float32"}, {"name": "batch_normalization_71/moving_variance", "shape": [232], "dtype": "float32"}, {"name": "batch_normalization_72/gamma", "shape": [1392], "dtype": "float32"}, {"name": "batch_normalization_72/beta", "shape": [1392], "dtype": "float32"}, {"name": "batch_normalization_72/moving_mean", "shape": [1392], "dtype": "float32"}, {"name": "batch_normalization_72/moving_variance", "shape": [1392], "dtype": "float32"}, {"name": "batch_normalization_73/gamma", "shape": [1392], "dtype": "float32"}, {"name": "batch_normalization_73/beta", "shape": [1392], "dtype": "float32"}, {"name": "batch_normalization_73/moving_mean", "shape": [1392], "dtype": "float32"}, {"name": "batch_normalization_73/moving_variance", "shape": [1392], "dtype": "float32"}, {"name": "batch_normalization_74/gamma", "shape": [384], "dtype": "float32"}, {"name": "batch_normalization_74/beta", "shape": [384], "dtype": "float32"}, {"name": "batch_normalization_74/moving_mean", "shape": [384], "dtype": "float32"}, {"name": "batch_normalization_74/moving_variance", "shape": [384], "dtype": "float32"}, {"name": "batch_normalization_75/gamma", "shape": [2304], "dtype": "float32"}, {"name": "batch_normalization_75/beta", "shape": [2304], "dtype": "float32"}, {"name": "batch_normalization_75/moving_mean", "shape": [2304], "dtype": "float32"}, {"name": "batch_normalization_75/moving_variance", "shape": [2304], "dtype": "float32"}, {"name": "batch_normalization_76/gamma", "shape": [2304], "dtype": "float32"}, {"name": "batch_normalization_76/beta", "shape": [2304], "dtype": "float32"}, {"name": "batch_normalization_76/moving_mean", "shape": [2304], "dtype": "float32"}, {"name": "batch_normalization_76/moving_variance", "shape": [2304], "dtype": "float32"}, {"name": "batch_normalization_77/gamma", "shape": [384], "dtype": "float32"}, {"name": "batch_normalization_77/beta", "shape": [384], "dtype": "float32"}, {"name": "batch_normalization_77/moving_mean", "shape": [384], "dtype": "float32"}, {"name": "batch_normalization_77/moving_variance", "shape": [384], "dtype": "float32"}, {"name": "batch_normalization_78/gamma", "shape": [1536], "dtype": "float32"}, {"name": "batch_normalization_78/beta", "shape": [1536], "dtype": "float32"}, {"name": "batch_normalization_78/moving_mean", "shape": [1536], "dtype": "float32"}, {"name": "batch_normalization_78/moving_variance", "shape": [1536], "dtype": "float32"}, {"name": "batch_normalization_8/gamma", "shape": [32], "dtype": "float32"}, {"name": "batch_normalization_8/beta", "shape": [32], "dtype": "float32"}, {"name": "batch_normalization_8/moving_mean", "shape": [32], "dtype": "float32"}, {"name": "batch_normalization_8/moving_variance", "shape": [32], "dtype": "float32"}, {"name": "batch_normalization_9/gamma", "shape": [192], "dtype": "float32"}, {"name": "batch_normalization_9/beta", "shape": [192], "dtype": "float32"}, {"name": "batch_normalization_9/moving_mean", "shape": [192], "dtype": "float32"}, {"name": "batch_normalization_9/moving_variance", "shape": [192], "dtype": "float32"}, {"name": "conv2d_1/kernel", "shape": [3, 3, 3, 40], "dtype": "float32"}, {"name": "conv2d_10/kernel", "shape": [1, 1, 6, 144], "dtype": "float32"}, {"name": "conv2d_10/bias", "shape": [144], "dtype": "float32"}, {"name": "conv2d_100/kernel", "shape": [1, 1, 384, 2304], "dtype": "float32"}, {"name": "conv2d_101/kernel", "shape": [1, 1, 2304, 96], "dtype": "float32"}, {"name": "conv2d_101/bias", "shape": [96], "dtype": "float32"}, {"name": "conv2d_102/kernel", "shape": [1, 1, 96, 2304], "dtype": "float32"}, {"name": "conv2d_102/bias", "shape": [2304], "dtype": "float32"}, {"name": "conv2d_103/kernel", "shape": [1, 1, 2304, 384], "dtype": "float32"}, {"name": "conv2d_104/kernel", "shape": [1, 1, 384, 1536], "dtype": "float32"}, {"name": "conv2d_11/kernel", "shape": [1, 1, 144, 32], "dtype": "float32"}, {"name": "conv2d_12/kernel", "shape": [1, 1, 32, 192], "dtype": "float32"}, {"name": "conv2d_13/kernel", "shape": [1, 1, 192, 8], "dtype": "float32"}, {"name": "conv2d_13/bias", "shape": [8], "dtype": "float32"}, {"name": "conv2d_14/kernel", "shape": [1, 1, 8, 192], "dtype": "float32"}, {"name": "conv2d_14/bias", "shape": [192], "dtype": "float32"}, {"name": "conv2d_15/kernel", "shape": [1, 1, 192, 32], "dtype": "float32"}, {"name": "conv2d_16/kernel", "shape": [1, 1, 32, 192], "dtype": "float32"}, {"name": "conv2d_17/kernel", "shape": [1, 1, 192, 8], "dtype": "float32"}, {"name": "conv2d_17/bias", "shape": [8], "dtype": "float32"}, {"name": "conv2d_18/kernel", "shape": [1, 1, 8, 192], "dtype": "float32"}, {"name": "conv2d_18/bias", "shape": [192], "dtype": "float32"}, {"name": "conv2d_19/kernel", "shape": [1, 1, 192, 32], "dtype": "float32"}, {"name": "conv2d_2/kernel", "shape": [1, 1, 40, 10], "dtype": "float32"}, {"name": "conv2d_2/bias", "shape": [10], "dtype": "float32"}, {"name": "conv2d_20/kernel", "shape": [1, 1, 32, 192], "dtype": "float32"}, {"name": "conv2d_21/kernel", "shape": [1, 1, 192, 8], "dtype": "float32"}, {"name": "conv2d_21/bias", "shape": [8], "dtype": "float32"}, {"name": "conv2d_22/kernel", "shape": [1, 1, 8, 192], "dtype": "float32"}, {"name": "conv2d_22/bias", "shape": [192], "dtype": "float32"}, {"name": "conv2d_23/kernel", "shape": [1, 1, 192, 48], "dtype": "float32"}, {"name": "conv2d_24/kernel", "shape": [1, 1, 48, 288], "dtype": "float32"}, {"name": "conv2d_25/kernel", "shape": [1, 1, 288, 12], "dtype": "float32"}, {"name": "conv2d_25/bias", "shape": [12], "dtype": "float32"}, {"name": "conv2d_26/kernel", "shape": [1, 1, 12, 288], "dtype": "float32"}, {"name": "conv2d_26/bias", "shape": [288], "dtype": "float32"}, {"name": "conv2d_27/kernel", "shape": [1, 1, 288, 48], "dtype": "float32"}, {"name": "conv2d_28/kernel", "shape": [1, 1, 48, 288], "dtype": "float32"}, {"name": "conv2d_29/kernel", "shape": [1, 1, 288, 12], "dtype": "float32"}, {"name": "conv2d_29/bias", "shape": [12], "dtype": "float32"}, {"name": "conv2d_3/kernel", "shape": [1, 1, 10, 40], "dtype": "float32"}, {"name": "conv2d_3/bias", "shape": [40], "dtype": "float32"}, {"name": "conv2d_30/kernel", "shape": [1, 1, 12, 288], "dtype": "float32"}, {"name": "conv2d_30/bias", "shape": [288], "dtype": "float32"}, {"name": "conv2d_31/kernel", "shape": [1, 1, 288, 48], "dtype": "float32"}, {"name": "conv2d_32/kernel", "shape": [1, 1, 48, 288], "dtype": "float32"}, {"name": "conv2d_33/kernel", "shape": [1, 1, 288, 12], "dtype": "float32"}, {"name": "conv2d_33/bias", "shape": [12], "dtype": "float32"}, {"name": "conv2d_34/kernel", "shape": [1, 1, 12, 288], "dtype": "float32"}, {"name": "conv2d_34/bias", "shape": [288], "dtype": "float32"}, {"name": "conv2d_35/kernel", "shape": [1, 1, 288, 96], "dtype": "float32"}, {"name": "conv2d_36/kernel", "shape": [1, 1, 96, 576], "dtype": "float32"}, {"name": "conv2d_37/kernel", "shape": [1, 1, 576, 24], "dtype": "float32"}, {"name": "conv2d_37/bias", "shape": [24], "dtype": "float32"}, {"name": "conv2d_38/kernel", "shape": [1, 1, 24, 576], "dtype": "float32"}, {"name": "conv2d_38/bias", "shape": [576], "dtype": "float32"}, {"name": "conv2d_39/kernel", "shape": [1, 1, 576, 96], "dtype": "float32"}, {"name": "conv2d_4/kernel", "shape": [1, 1, 40, 24], "dtype": "float32"}, {"name": "conv2d_40/kernel", "shape": [1, 1, 96, 576], "dtype": "float32"}, {"name": "conv2d_41/kernel", "shape": [1, 1, 576, 24], "dtype": "float32"}, {"name": "conv2d_41/bias", "shape": [24], "dtype": "float32"}, {"name": "conv2d_42/kernel", "shape": [1, 1, 24, 576], "dtype": "float32"}, {"name": "conv2d_42/bias", "shape": [576], "dtype": "float32"}, {"name": "conv2d_43/kernel", "shape": [1, 1, 576, 96], "dtype": "float32"}, {"name": "conv2d_44/kernel", "shape": [1, 1, 96, 576], "dtype": "float32"}, {"name": "conv2d_45/kernel", "shape": [1, 1, 576, 24], "dtype": "float32"}, {"name": "conv2d_45/bias", "shape": [24], "dtype": "float32"}, {"name": "conv2d_46/kernel", "shape": [1, 1, 24, 576], "dtype": "float32"}, {"name": "conv2d_46/bias", "shape": [576], "dtype": "float32"}, {"name": "conv2d_47/kernel", "shape": [1, 1, 576, 96], "dtype": "float32"}, {"name": "conv2d_48/kernel", "shape": [1, 1, 96, 576], "dtype": "float32"}, {"name": "conv2d_49/kernel", "shape": [1, 1, 576, 24], "dtype": "float32"}, {"name": "conv2d_49/bias", "shape": [24], "dtype": "float32"}, {"name": "conv2d_5/kernel", "shape": [1, 1, 24, 6], "dtype": "float32"}, {"name": "conv2d_5/bias", "shape": [6], "dtype": "float32"}, {"name": "conv2d_50/kernel", "shape": [1, 1, 24, 576], "dtype": "float32"}, {"name": "conv2d_50/bias", "shape": [576], "dtype": "float32"}, {"name": "conv2d_51/kernel", "shape": [1, 1, 576, 96], "dtype": "float32"}, {"name": "conv2d_52/kernel", "shape": [1, 1, 96, 576], "dtype": "float32"}, {"name": "conv2d_53/kernel", "shape": [1, 1, 576, 24], "dtype": "float32"}, {"name": "conv2d_53/bias", "shape": [24], "dtype": "float32"}, {"name": "conv2d_54/kernel", "shape": [1, 1, 24, 576], "dtype": "float32"}, {"name": "conv2d_54/bias", "shape": [576], "dtype": "float32"}, {"name": "conv2d_55/kernel", "shape": [1, 1, 576, 136], "dtype": "float32"}, {"name": "conv2d_56/kernel", "shape": [1, 1, 136, 816], "dtype": "float32"}, {"name": "conv2d_57/kernel", "shape": [1, 1, 816, 34], "dtype": "float32"}, {"name": "conv2d_57/bias", "shape": [34], "dtype": "float32"}, {"name": "conv2d_58/kernel", "shape": [1, 1, 34, 816], "dtype": "float32"}, {"name": "conv2d_58/bias", "shape": [816], "dtype": "float32"}, {"name": "conv2d_59/kernel", "shape": [1, 1, 816, 136], "dtype": "float32"}, {"name": "conv2d_6/kernel", "shape": [1, 1, 6, 24], "dtype": "float32"}, {"name": "conv2d_6/bias", "shape": [24], "dtype": "float32"}, {"name": "conv2d_60/kernel", "shape": [1, 1, 136, 816], "dtype": "float32"}, {"name": "conv2d_61/kernel", "shape": [1, 1, 816, 34], "dtype": "float32"}, {"name": "conv2d_61/bias", "shape": [34], "dtype": "float32"}, {"name": "conv2d_62/kernel", "shape": [1, 1, 34, 816], "dtype": "float32"}, {"name": "conv2d_62/bias", "shape": [816], "dtype": "float32"}, {"name": "conv2d_63/kernel", "shape": [1, 1, 816, 136], "dtype": "float32"}, {"name": "conv2d_64/kernel", "shape": [1, 1, 136, 816], "dtype": "float32"}, {"name": "conv2d_65/kernel", "shape": [1, 1, 816, 34], "dtype": "float32"}, {"name": "conv2d_65/bias", "shape": [34], "dtype": "float32"}, {"name": "conv2d_66/kernel", "shape": [1, 1, 34, 816], "dtype": "float32"}, {"name": "conv2d_66/bias", "shape": [816], "dtype": "float32"}, {"name": "conv2d_67/kernel", "shape": [1, 1, 816, 136], "dtype": "float32"}, {"name": "conv2d_68/kernel", "shape": [1, 1, 136, 816], "dtype": "float32"}, {"name": "conv2d_69/kernel", "shape": [1, 1, 816, 34], "dtype": "float32"}, {"name": "conv2d_69/bias", "shape": [34], "dtype": "float32"}, {"name": "conv2d_7/kernel", "shape": [1, 1, 24, 24], "dtype": "float32"}, {"name": "conv2d_70/kernel", "shape": [1, 1, 34, 816], "dtype": "float32"}, {"name": "conv2d_70/bias", "shape": [816], "dtype": "float32"}, {"name": "conv2d_71/kernel", "shape": [1, 1, 816, 136], "dtype": "float32"}, {"name": "conv2d_72/kernel", "shape": [1, 1, 136, 816], "dtype": "float32"}, {"name": "conv2d_73/kernel", "shape": [1, 1, 816, 34], "dtype": "float32"}, {"name": "conv2d_73/bias", "shape": [34], "dtype": "float32"}, {"name": "conv2d_74/kernel", "shape": [1, 1, 34, 816], "dtype": "float32"}, {"name": "conv2d_74/bias", "shape": [816], "dtype": "float32"}, {"name": "conv2d_75/kernel", "shape": [1, 1, 816, 232], "dtype": "float32"}, {"name": "conv2d_76/kernel", "shape": [1, 1, 232, 1392], "dtype": "float32"}, {"name": "conv2d_77/kernel", "shape": [1, 1, 1392, 58], "dtype": "float32"}, {"name": "conv2d_77/bias", "shape": [58], "dtype": "float32"}, {"name": "conv2d_78/kernel", "shape": [1, 1, 58, 1392], "dtype": "float32"}, {"name": "conv2d_78/bias", "shape": [1392], "dtype": "float32"}, {"name": "conv2d_79/kernel", "shape": [1, 1, 1392, 232], "dtype": "float32"}, {"name": "conv2d_8/kernel", "shape": [1, 1, 24, 144], "dtype": "float32"}, {"name": "conv2d_80/kernel", "shape": [1, 1, 232, 1392], "dtype": "float32"}, {"name": "conv2d_81/kernel", "shape": [1, 1, 1392, 58], "dtype": "float32"}, {"name": "conv2d_81/bias", "shape": [58], "dtype": "float32"}, {"name": "conv2d_82/kernel", "shape": [1, 1, 58, 1392], "dtype": "float32"}, {"name": "conv2d_82/bias", "shape": [1392], "dtype": "float32"}, {"name": "conv2d_83/kernel", "shape": [1, 1, 1392, 232], "dtype": "float32"}, {"name": "conv2d_84/kernel", "shape": [1, 1, 232, 1392], "dtype": "float32"}, {"name": "conv2d_85/kernel", "shape": [1, 1, 1392, 58], "dtype": "float32"}, {"name": "conv2d_85/bias", "shape": [58], "dtype": "float32"}, {"name": "conv2d_86/kernel", "shape": [1, 1, 58, 1392], "dtype": "float32"}, {"name": "conv2d_86/bias", "shape": [1392], "dtype": "float32"}, {"name": "conv2d_87/kernel", "shape": [1, 1, 1392, 232], "dtype": "float32"}, {"name": "conv2d_88/kernel", "shape": [1, 1, 232, 1392], "dtype": "float32"}, {"name": "conv2d_89/kernel", "shape": [1, 1, 1392, 58], "dtype": "float32"}, {"name": "conv2d_89/bias", "shape": [58], "dtype": "float32"}, {"name": "conv2d_9/kernel", "shape": [1, 1, 144, 6], "dtype": "float32"}, {"name": "conv2d_9/bias", "shape": [6], "dtype": "float32"}, {"name": "conv2d_90/kernel", "shape": [1, 1, 58, 1392], "dtype": "float32"}, {"name": "conv2d_90/bias", "shape": [1392], "dtype": "float32"}, {"name": "conv2d_91/kernel", "shape": [1, 1, 1392, 232], "dtype": "float32"}, {"name": "conv2d_92/kernel", "shape": [1, 1, 232, 1392], "dtype": "float32"}, {"name": "conv2d_93/kernel", "shape": [1, 1, 1392, 58], "dtype": "float32"}, {"name": "conv2d_93/bias", "shape": [58], "dtype": "float32"}, {"name": "conv2d_94/kernel", "shape": [1, 1, 58, 1392], "dtype": "float32"}, {"name": "conv2d_94/bias", "shape": [1392], "dtype": "float32"}, {"name": "conv2d_95/kernel", "shape": [1, 1, 1392, 232], "dtype": "float32"}, {"name": "conv2d_96/kernel", "shape": [1, 1, 232, 1392], "dtype": "float32"}, {"name": "conv2d_97/kernel", "shape": [1, 1, 1392, 58], "dtype": "float32"}, {"name": "conv2d_97/bias", "shape": [58], "dtype": "float32"}, {"name": "conv2d_98/kernel", "shape": [1, 1, 58, 1392], "dtype": "float32"}, {"name": "conv2d_98/bias", "shape": [1392], "dtype": "float32"}, {"name": "conv2d_99/kernel", "shape": [1, 1, 1392, 384], "dtype": "float32"}, {"name": "dense_1/kernel", "shape": [1536, 1000], "dtype": "float32"}, {"name": "dense_1/bias", "shape": [1000], "dtype": "float32"}, {"name": "depthwise_conv2d_1/depthwise_kernel", "shape": [3, 3, 40, 1], "dtype": "float32"}, {"name": "depthwise_conv2d_10/depthwise_kernel", "shape": [3, 3, 576, 1], "dtype": "float32"}, {"name": "depthwise_conv2d_11/depthwise_kernel", "shape": [3, 3, 576, 1], "dtype": "float32"}, {"name": "depthwise_conv2d_12/depthwise_kernel", "shape": [3, 3, 576, 1], "dtype": "float32"}, {"name": "depthwise_conv2d_13/depthwise_kernel", "shape": [3, 3, 576, 1], "dtype": "float32"}, {"name": "depthwise_conv2d_14/depthwise_kernel", "shape": [5, 5, 576, 1], "dtype": "float32"}, {"name": "depthwise_conv2d_15/depthwise_kernel", "shape": [5, 5, 816, 1], "dtype": "float32"}, {"name": "depthwise_conv2d_16/depthwise_kernel", "shape": [5, 5, 816, 1], "dtype": "float32"}, {"name": "depthwise_conv2d_17/depthwise_kernel", "shape": [5, 5, 816, 1], "dtype": "float32"}, {"name": "depthwise_conv2d_18/depthwise_kernel", "shape": [5, 5, 816, 1], "dtype": "float32"}, {"name": "depthwise_conv2d_19/depthwise_kernel", "shape": [5, 5, 816, 1], "dtype": "float32"}, {"name": "depthwise_conv2d_2/depthwise_kernel", "shape": [3, 3, 24, 1], "dtype": "float32"}, {"name": "depthwise_conv2d_20/depthwise_kernel", "shape": [5, 5, 1392, 1], "dtype": "float32"}, {"name": "depthwise_conv2d_21/depthwise_kernel", "shape": [5, 5, 1392, 1], "dtype": "float32"}, {"name": "depthwise_conv2d_22/depthwise_kernel", "shape": [5, 5, 1392, 1], "dtype": "float32"}, {"name": "depthwise_conv2d_23/depthwise_kernel", "shape": [5, 5, 1392, 1], "dtype": "float32"}, {"name": "depthwise_conv2d_24/depthwise_kernel", "shape": [5, 5, 1392, 1], "dtype": "float32"}, {"name": "depthwise_conv2d_25/depthwise_kernel", "shape": [3, 3, 1392, 1], "dtype": "float32"}, {"name": "depthwise_conv2d_26/depthwise_kernel", "shape": [3, 3, 2304, 1], "dtype": "float32"}, {"name": "depthwise_conv2d_3/depthwise_kernel", "shape": [3, 3, 144, 1], "dtype": "float32"}, {"name": "depthwise_conv2d_4/depthwise_kernel", "shape": [3, 3, 192, 1], "dtype": "float32"}, {"name": "depthwise_conv2d_5/depthwise_kernel", "shape": [3, 3, 192, 1], "dtype": "float32"}, {"name": "depthwise_conv2d_6/depthwise_kernel", "shape": [5, 5, 192, 1], "dtype": "float32"}, {"name": "depthwise_conv2d_7/depthwise_kernel", "shape": [5, 5, 288, 1], "dtype": "float32"}, {"name": "depthwise_conv2d_8/depthwise_kernel", "shape": [5, 5, 288, 1], "dtype": "float32"}, {"name": "depthwise_conv2d_9/depthwise_kernel", "shape": [3, 3, 288, 1], "dtype": "float32"}]}]}